s1.pth (torch, 179445 bytes, 16 tensors)

conv1.weight f4 [10, 1, 5, 5]
000000 49 27 1a be dc 12 07 3e ff 90 45 3e 1c 6a 6a 3e
       -0.15054049 0.13190788 0.19293593 0.2289204
000010 e0 5d 96 3e 08 52 32 bd 0f db 55 3e 0a 49 3a 3e
       0.29368496 -0.043535262 0.20884345 0.18191925
000020 49 8c 8e 3e 5d 94 4a 3d 3b cf dc bd aa 75 91 be
       0.27841404 0.049457897 -0.107817136 -0.28410083
000030 fd 99 10 be 4b a7 04 3d fa 05 2a bd e7 21 a7 bd
       -0.14121242 0.032386106 -0.041509606 -0.08160763
000040 26 a2 4e be 66 11 26 be 9b 71 3a 3d cf 5d 5e 3e
       -0.20179042 -0.16217574 0.0455185 0.21715473
000050 c1 d0 8a bd 18 a0 42 be 7a a0 65 be cd df 83 be
       -0.06778098 -0.19006383 -0.22424498 -0.25756684
000060 31 65 4a be 47 64 62 be 80 d0 9b bd 19 58 b1 bd
       -0.19765164 -0.22108565 -0.076081276 -0.086593814
000070 40 6c df bd 9b 20 fd bb 12 ba 36 be b9 e6 63 3d
       -0.10909319 -0.007724834 -0.17844418 0.055639956
000080 b2 6f cc bd 5d cf a9 bb 18 6e c0 bc 7a d1 a2 bd
       -0.09982242 -0.0051821903 -0.023489997 -0.07950111
000090 13 ac 3a be 2c cd fe bb 39 21 dd bc ef c8 87 3d
       -0.18229704 -0.0077759232 -0.02699338 0.06630122
0000a0 37 93 46 3e 0c 9d 29 3c 2f 4f a6 3d eb 18 9f bc
       0.19392096 0.010352384 0.08120572 -0.019421062
0000b0 4b 39 da bd 2e b4 3f bd f4 28 c8 bd e4 56 6d 3e
       -0.10655459 -0.046802692 -0.09773436 0.23177677
0000c0 7a ed 79 3e 0d 03 cf 3d f5 44 b0 3d d8 70 2b 3e
       0.24406996 0.10108004 0.086069025 0.16742265
0000d0 36 74 72 3d 73 ee 8d 3d e2 1f 02 be 8f 63 08 3e
       0.05919286 0.06930246 -0.12707475 0.13319229
0000e0 95 00 98 3d 1b 87 70 3d 07 5b 4a 3d a8 87 94 3e
       0.07421986 0.058722597 0.049403217 0.29009748
0000f0 7e 40 49 bd 9b d2 cc bd 3f 3c 56 3e fa 2f 0d 3d
       -0.04913377 -0.10001107 0.2092142 0.034469582
000100 b0 06 87 bd 95 39 ba bd a9 ac 17 3d 53 55 57 bd
       -0.065930724 -0.09093014 0.037029896 -0.052571606
000110 79 3e 1d 3e 8a 9b 03 3d 03 e1 7c be e6 db 57 be
       0.15355863 0.032130755 -0.2469521 -0.21079978
000120 79 f7 26 be 8d 0d 49 be 3e 91 ed 3c 1e 3b 19 3d
       -0.16305341 -0.19634075 0.028999921 0.037409894
000130 fc db 89 be a6 6b 11 3e 45 1c c1 3d 37 21 ae 3e
       -0.26925647 0.14201221 0.0942922 0.34009716
000140 89 ab 4a be 0a 1e b0 be 3e ad 25 3d 66 62 e0 3d
       -0.19791998 -0.34397918 0.04044842 0.10956268
000150 62 9a bf 3e af 8f 9c be 80 9b 5b be 5c 23 89 be
       0.37422472 -0.30578372 -0.21446037 -0.2678479
000160 40 ce a1 3e 3f 27 f7 3e e9 c2 22 be 81 fa 45 be
       0.3160267 0.4827213 -0.15894665 -0.19333841
000170 25 7f 53 be e2 ce 96 3e 44 ac 8b 3e 5c 0b 3c be
       -0.2065397 0.29454714 0.27279866 -0.18363708
000180 ff c4 63 3d 8a ad 2a 3c 39 98 a8 3e 1f cd 7b 3e
       0.055607792 0.0104173515 0.32928637 0.24589966
000190 80 ca 42 3e 0d da 08 39 5f a3 a7 be 3f 76 77 be
       0.1902256 0.00013051201 -0.3274183 -0.24166201
0001a0 a5 ea a8 bd b4 c1 52 3e e1 0e 1a be 01 f5 86 be
       -0.0824788 0.20581704 -0.15044738 -0.26358798
0001b0 68 e1 51 bd 9e 98 f5 3d dc c2 a9 3d 0d 37 7f 3e
       -0.051240355 0.11992 0.082891196 0.24923344
0001c0 82 fc d9 ba 11 56 98 3e 39 7c 25 3e ff 94 2e bd
       -0.0016631039 0.29753163 0.16160668 -0.042622562
0001d0 0a 37 5f 3e 43 8e bc 3e 62 65 71 3e b0 88 3f 3e
       0.2179834 0.36827287 0.2357383 0.18704486
0001e0 3b 9d a1 3e bf 86 9f 3e 43 08 6b 3e 1e 9e 72 bd
       0.3156527 0.3115749 0.2295237 -0.059232824
0001f0 24 68 e4 3d db 5f 7b 3e 01 a1 0c 3e 00 b6 79 3e
       0.11152676 0.24548285 0.13733293 0.24385834
000200 67 2a 87 3e 7a 1d de bd 8a 21 76 3d b6 71 ce 3d
       0.26399538 -0.10845466 0.06009058 0.100802824
000210 63 91 d3 bb 2c 67 63 3e 50 b0 86 3d ab 66 9d bd
       -0.0064565404 0.22207326 0.06576598 -0.07685598
000220 33 be e6 3a db da c1 3d 6f 0f 8b 3e ff ec 13 3e
       0.0017604291 0.094655715 0.27160212 0.14445876
000230 33 5d 92 3c ea e8 00 3b a8 c3 3d 3e 7e 35 8f 3e
       0.017866706 0.0019670078 0.18531668 0.279705
000240 f1 9f 0d 3e 54 a4 64 be 7c 63 bf bd a2 9e ee 3d
       0.13830544 -0.22328311 -0.09345147 0.116513506
000250 d2 80 b7 3e 27 c5 8d 3e 21 07 af bd 0c 62 c0 3c
       0.3584047 0.27689478 -0.085462816 0.023484252
000260 56 e2 6d 3e 27 c6 4e 3d 5d 56 38 bd 3a df 7e ba
       0.23230872 0.05048194 -0.045004237 -0.00097225944
000270 32 0f 80 be ce 95 29 3e 32 68 94 3e ca 7e 92 3e
       -0.25011593 0.16561052 0.28985745 0.28612357
000280 e0 ac 0a be ac a6 2d be 98 4a 83 be 69 d9 69 bd
       -0.13542509 -0.16958112 -0.25642848 -0.057092104
000290 5d cb 93 3d d8 34 13 3e 7b cd 44 be b6 08 86 be
       0.07216523 0.14375627 -0.1921901 -0.2617852
0002a0 9a d0 2c bc 7a 39 3a be 56 d8 10 3e b7 37 99 3c
       -0.010547781 -0.18185988 0.14145026 0.018703325
0002b0 b9 94 94 bd af b1 80 3d b7 78 93 ba e0 54 a6 be
       -0.07254929 0.062838905 -0.0011251186 -0.3248663
0002c0 04 dc 1c be 7f 0c 8b be 0f a7 c0 bc 03 c7 34 be
       -0.15318304 -0.2715797 -0.02351716 -0.17654042
0002d0 dd c7 36 be 2a 71 d3 3d d3 f9 03 be 52 6a 39 3e
       -0.1784968 0.10324319 -0.12888269 0.18106964
0002e0 21 ab c4 3d a6 9b d2 bc c8 c9 0a 3e 3c f0 90 3e
       0.09602953 -0.025708985 0.13553536 0.28308284
0002f0 e0 f4 8b 3d ad 98 3c 3e 93 d9 ad 3e 79 2b d3 3e
       0.068338156 0.18417616 0.33955058 0.41244105
000300 2c 38 ae 3e 1e ad b4 3c e6 20 33 3d 48 a7 97 3e
       0.3402723 0.022055205 0.043732546 0.29619813
000310 4f 81 8c 3e 0e 61 32 be e1 ac 84 3c 6b c8 18 be
       0.27442405 -0.17419836 0.016195716 -0.14920203
000320 15 ae 26 3e 47 f8 6b 3e 7e ee ac 3e 47 9c 8f 3e
       0.16277345 0.23043929 0.33775705 0.28048918
000330 e9 7c bf 3e 57 dd 51 3e a5 d6 95 bd 44 ea a8 3e
       0.37399986 0.2049459 -0.07316331 0.3299123
000340 cb 28 83 3e 53 17 b6 3e ba a9 bf be 71 80 05 be
       0.2561706 0.3556467 -0.3743418 -0.13037278
000350 9a 24 56 be 77 33 19 be 11 75 5b 3d af ab f9 bd
       -0.209124 -0.14961039 0.05357844 -0.12190949
000360 28 92 ac be b2 cd 26 be d4 d4 be be 48 c2 9a be
       -0.33705258 -0.16289404 -0.3727175 -0.3022635
000370 61 10 b3 39 56 ff ab bd 3c d2 ad be 0c a1 a4 bc
       0.00034153744 -0.08398311 -0.3394946 -0.020096324
000380 3c 1c 2a be d4 78 c1 3e e7 c3 33 3e 9b b2 21 be
       -0.16612333 0.37787497 0.175552 -0.15790789
000390 78 21 72 be 23 6d 53 be 82 fb cf 3e 96 c2 a3 bc
       -0.2364558 -0.20647101 0.40621573 -0.019990247
0003a0 e9 b0 fa bd 05 73 27 be 3d cb 53 be 4f 35 a3 3e
       -0.12240774 -0.1635247 -0.20682998 0.3187661
0003b0 0a 0b 1c 3e ef 42 ff bd 2c db 16 be be df dd bd
       0.15238586 -0.124639384 -0.14732045 -0.10833691
0003c0 ff cf 93 3e 14 3b 79 3e 50 72 a4 bd a9 bc 3e 3c
       0.28869626 0.24338943 -0.08029616 0.01164166
0003d0 43 36 e9 bd 75 ad 07 bd a7 9d e5 bb 4e bc b5 3d
       -0.11387303 -0.033124406 -0.007007319 0.08873807
0003e0 a5 69 4e be 6c 4f 00 be
       -0.20157488 -0.12530297

conv1.bias f4 [10]
000000 98 43 f3 3c a4 09 05 bd f8 1a 38 3c 3a e7 d4 3d
       0.029695317 -0.032479897 0.011236899 0.103956655
000010 7b 90 b2 bc 18 57 e5 3d ab 18 dc bd a5 be 4b 3c
       -0.02179741 0.111982524 -0.107468925 0.01243559
000020 63 c8 bd bc f9 8c b0 bd
       -0.02316684 -0.086206384

conv2.weight f4 [20, 10, 5, 5]
000000 e4 6c 9b bd 36 d3 65 3d 22 e7 a0 3d d6 2d 88 3d
       -0.075891286 0.05610963 0.07856585 0.066493675
000010 1a 79 9d 3d 08 13 89 bc d7 c5 2a bd 7d e2 2e 3c
       0.07689114 -0.016732708 -0.04169258 0.010674116
000020 9c 18 40 3d 1a e5 9a bd 84 eb 4c 3c 7f 0a 00 3d
       0.04689847 -0.07563229 0.012507323 0.03126001
000030 d1 38 a2 bc 81 49 77 bb ec e9 ab bc ae db 61 bc
       -0.019802483 -0.003773302 -0.020985566 -0.013785286
000040 f0 2f 7d 3b b8 b9 9f bc ec 0a 48 3d e3 1d 41 bd
       0.003863331 -0.019497737 0.04883854 -0.047147643
000050 24 33 62 bc ca a9 af 3b bc 4d f3 bc a5 39 8d bc
       -0.013806138 0.0053608166 -0.029700153 -0.017239401
000060 f6 b9 58 3c 40 a5 9f 3d 6f 33 8e bc cb a6 ad ba
       0.01322793 0.07795191 -0.01735851 -0.0013248561
000070 3c d3 7c 3c 4f 10 e0 ba ca 72 28 bd 9d 38 6d 3b
       0.015431222 -0.0017094704 -0.041125096 0.0036197074
000080 35 02 cf 3c 56 a0 39 3c 1a 96 78 3d a1 ce 82 3b
       0.025269607 0.011329731 0.060690023 0.0039919172
000090 65 21 a7 bd 18 27 45 3d e5 d9 15 3c ff 56 20 3d
       -0.081606664 0.048132986 0.009146188 0.039145466
0000a0 aa f9 7a bd e0 c8 dc bc 08 21 b0 bc 8a 02 9a bd
       -0.061273254 -0.026951253 -0.021500126 -0.075200155
0000b0 1f e5 e6 bc 89 89 53 3c 68 a3 a1 3b 77 ce 6f bd
       -0.028185425 0.012911209 0.0049328096 -0.05854651
0000c0 62 56 0e bc 26 49 f1 3c 0a 57 72 3c 01 dc 49 bd
       -0.008687587 0.029453825 0.01479126 -0.049282078
0000d0 20 f3 87 bc df 61 00 bd 8e be 45 bc 75 21 64 bd
       -0.016595423 -0.031343337 -0.012069358 -0.05569597
0000e0 de bd 9b 3c 45 f0 48 bc d6 3f 63 3c e2 50 ec bc
       0.019011434 -0.012264316 0.0138702 -0.028847162
0000f0 0a 57 ee 3b 14 ce 73 bc 80 5c 21 bd 05 e4 54 3d
       0.0072735595 -0.014880676 -0.039394855 0.05197527
000100 5b 18 38 3d 21 93 0c bd 92 ac 9f bd 42 56 90 3d
       0.044945102 -0.03432 -0.07796587 0.07047702
000110 6a b9 1b bd 81 34 04 3d fc 72 62 ba 8a d8 38 bd
       -0.03801862 0.032276634 -0.000863835 -0.045128383
000120 1f b3 d3 bb 11 c5 52 bd a3 c9 00 bd 20 42 0f be
       -0.006460562 -0.05145747 -0.031442296 -0.13990068
000130 75 06 39 3b b8 85 8c bd 25 4b 91 bd 67 9c ef bd
       0.0028232608 -0.06861442 -0.07094411 -0.11699753
000140 76 33 0b bd cc da ba bd 8c 6a d4 3b 16 de cb bd
       -0.033984624 -0.091237634 0.006482428 -0.09954469
000150 bc 14 04 be d7 b1 75 3d 89 ea ba 3d 7e bd 6b bd
       -0.12898535 0.059984054 0.09126765 -0.05755376
000160 86 93 af bd d5 0b bc 3c bc b7 58 3d ef 40 8a 3d
       -0.0857306 0.02295486 0.052909598 0.06750666
000170 4c 5b da 3a a9 f6 94 3d fa 96 dc 3d b4 af ff bd
       0.0016659289 0.07273609 0.10770984 -0.124846846
000180 c4 80 8b bd a2 73 45 3d 8b bd 9b 3d 95 60 57 3d
       -0.068116695 0.04820598 0.07604512 0.052582342
000190 ba 80 7e bc 10 21 e8 bc 49 7c bc bd e7 bb ab bd
       -0.0155336205 -0.028336078 -0.09203393 -0.08385449
0001a0 06 82 af bd 8a e6 c9 3d fc 71 42 bc 33 79 a4 3d
       -0.08569722 0.09858425 -0.011867996 0.080309294
0001b0 21 75 9a bc 19 f6 86 3c 91 41 51 bd 5c 23 64 3b
       -0.01885468 0.01647477 -0.05108792 0.0034811115
0001c0 60 0a bd 3d 38 f7 9a 3c c7 76 c6 b9 30 a6 80 3d
       0.092304945 0.018916711 -0.00037854 0.06281698
0001d0 31 04 09 3d 15 1b cb bd 69 46 44 bd 7e 7d e0 3d
       0.033451263 -0.09917275 -0.04791871 0.10961436
0001e0 d5 e6 9b 3d 14 b1 b0 3c b5 d9 2f bd e8 10 49 3c
       0.07612387 0.021568812 -0.04293223 0.012272097
0001f0 59 cf 86 3d 26 57 ab bd 02 5c 9b bd a3 ec c4 bc
       0.06582517 -0.083662316 -0.075859085 -0.024038618
000200 cf 08 7a bd ab ff 1e bd ad a5 80 bd 97 14 5b 3d
       -0.061043557 -0.038818043 -0.062816 0.053486433
000210 a0 44 74 bd c0 89 e5 bc c8 08 9c bd 87 23 c4 3d
       -0.05963576 -0.028019786 -0.076188624 0.09577089
000220 51 62 85 3d 3a aa 5c 3c 27 ab 39 bd f9 ba 42 3d
       0.06512893 0.01346832 -0.04532924 0.047541592
000230 7b d5 31 bd ea 0c 1b bd fc cb 0e bd 41 04 c6 3c
       -0.04341648 -0.037854113 -0.034862503 0.02417195
000240 8a 18 df 3d ee 5e 93 ba 31 7d 7b 39 47 af 4a bd
       0.10893352 -0.0011243501 0.00023983863 -0.049483564
000250 1a e6 5a 3d 90 64 1f bd 16 bc 46 3d 18 c2 97 3d
       0.0534421 -0.038914263 0.048519216 0.07410067
000260 64 35 b3 bc 36 78 17 3d ea a0 2d 3d a7 10 29 3b
       -0.021876045 0.036979876 0.042389788 0.002579728
000270 78 f3 65 bc 74 3c e7 bc eb 46 69 3c 7f 9e a1 bd
       -0.014035098 -0.028227068 0.0142381 -0.07891559
000280 86 84 34 3d a7 ee 99 bc 2e 0b bb 39 8b bd 90 bc
       0.044071697 -0.018790556 0.0003567575 -0.017668506
000290 54 a0 0e bd 8a 73 58 bd 07 a0 1c 3d 4f 12 0b 3d
       -0.03482087 -0.05284456 0.03823855 0.033953007
0002a0 2d 10 8f 3c 10 3b 90 3d e0 15 96 bc 0c fe 12 bd
       0.017463768 0.07042515 -0.018320978 -0.03588681
0002b0 11 35 9f 3c 79 8d f3 bc a0 8e 53 3d bc 7c f3 3c
       0.019434484 -0.029730545 0.05164969 0.029722564
0002c0 29 ec 3d bc 0e fb b6 bd 48 16 d4 bd 00 4f ac bd
       -0.0115919495 -0.08934604 -0.10355812 -0.084135056
0002d0 41 a8 08 3e 6f cc 91 3d b9 f4 a7 3d f1 2b 50 3d
       0.13345434 0.07119071 0.08200974 0.050823156
0002e0 41 ba a4 3c 32 ce cb 3c ec b8 13 bd b3 bb ae 3d
       0.020108344 0.024878595 -0.036065027 0.085318945
0002f0 d9 76 43 bd 0c a7 a5 3b b2 dc 02 3e 52 16 f0 3c
       -0.047720764 0.005055314 0.12779501 0.029307518
000300 9c 01 5e 3c 53 af ca bb 8e af a3 3d ba cb df 3d
       0.013550188 -0.006185451 0.07992469 0.1092753
000310 46 4a 83 bd 08 b1 56 3a 1c 35 7a 3c fb 27 27 3d
       -0.06410651 0.0008189832 0.015271451 0.040809613
000320 b0 18 8a 3b 17 74 bd 3d 8f 17 5e 3d 91 fa bd 3d
       0.0042143688 0.09250658 0.054221686 0.092763074
000330 66 cd 48 3d 5d da ac ba 68 3b a3 bd db 85 9e bc
       0.04902401 -0.0013187636 -0.07970315 -0.019350937
000340 98 81 35 3c 0d b5 2f bc ea df b7 3d 17 60 97 3d
       0.011078261 -0.010724318 0.08978255 0.073913746
000350 a6 ee cc 3c 48 37 57 3d 36 9d 90 3d b9 ec b6 bd
       0.02501614 0.052542955 0.070612356 -0.0893187
000360 4c 37 6b 3d 9f 04 da bc 99 12 44 bc 5f 98 01 bd
       0.057425782 -0.026613532 -0.011967325 -0.031639453
000370 7c 98 51 3b de be 43 bd b6 f6 84 3b 96 3f 46 bd
       0.0031981757 -0.047789447 0.0040577305 -0.048400484
000380 1d 8e 03 bd 64 14 00 3d 21 c5 d0 3b 7c 62 a3 3c
       -0.03211795 0.031269446 0.006371156 0.019944422
000390 34 e5 a6 bc db 0c 0c 3d 58 0f 5c bc 0e 54 72 3d
       -0.020372964 0.034191947 -0.013431393 0.059162192
0003a0 39 99 88 bd 15 7d 8b bc ed 9a a3 bc b9 c0 c2 bd
       -0.0666985 -0.017027417 -0.019971335 -0.09509415
0003b0 63 7c 90 bd fd 91 84 bc 49 87 4e bc 83 f2 3c bb
       -0.07054975 -0.016182894 -0.012605497 -0.0028831072
0003c0 3f 54 79 bd d1 f8 02 3d 17 7c c6 3d 94 01 57 3d
       -0.06087136 0.03197557 0.09691637 0.05249174
0003d0 c8 05 50 bc b7 7c 13 bd 09 b9 48 3d d8 56 2f bd
       -0.012696691 -0.03600761 0.04900459 -0.04280743
0003e0 c7 cf ee 3a 03 f3 a0 bb a7 9c 35 bc 65 e4 07 bc
       0.0018219881 -0.0049117818 -0.011084712 -0.0082942
0003f0 42 49 bd 3c e8 2a 2b bd 87 46 9b 3d 41 db 37 3c
       0.023106221 -0.041788965 0.075818114 0.011221708

conv2.bias f4 [20]
000000 60 e9 e6 bc 33 80 38 bd f2 20 16 3d ab b0 91 bd
       -0.028187454 -0.045044135 0.036652513 -0.07113775
000010 50 f1 8f 3d 63 a6 5f bc 37 cd 7c bd 21 5d b2 bc
       0.070284486 -0.0136505095 -0.061719146 -0.021772923
000020 8d 33 a0 3c 9e f1 a9 bc 6c d0 c4 3c 93 f3 63 3d
       0.019555831 -0.020745095 0.024025165 0.055652212
000030 10 2e f2 3c d3 d7 23 3b 02 a0 74 bd ec 2a 8d 3d
       0.02956298 0.0025000467 -0.059722908 0.06892952
000040 84 8c 12 3d c7 a5 80 bd ce 62 18 bd 27 3f 34 bd
       0.035778537 -0.062816195 -0.037203602 -0.04400554

fc1.weight f4 [50, 320]
000000 60 ba b1 3c cf 3d 17 bd 50 a9 09 bc 87 b5 ca 3c
       0.021695316 -0.03692418 -0.008402184 0.024744762
000010 55 67 eb bb a3 77 37 bc d9 28 20 bd 71 ce 07 bd
       -0.007183949 -0.011197957 -0.039101455 -0.033155862
000020 fa 51 91 bb e7 e1 32 3d e5 61 65 3c b0 96 ef 3c
       -0.004434821 0.04367247 0.014000391 0.029246658
000030 d3 49 73 bc c6 d8 3a bc cc a8 e0 bc ff 13 80 3d
       -0.014849144 -0.011404222 -0.027424239 0.06253814
000040 06 65 a8 3b 2c fa f2 bc 84 98 e5 ba ae 91 52 3a
       0.005138996 -0.029660307 -0.0017516767 0.0008032572
000050 11 65 1b 3d c0 ff f7 3b 1b d3 19 bd 38 bd 4c bc
       0.03793818 0.0075683296 -0.03755484 -0.012496285
000060 8d 02 86 bc 52 18 12 3d d3 6c 22 3d 4a f2 3a 3c
       -0.016358638 0.035667725 0.039654564 0.011410305
000070 3b ef 4a 3c 2d 5b 10 3d 45 6a 71 bc bd 03 74 3c
       0.012386139 0.035243202 -0.014734809 0.014893469
000080 3d 7a ee 3a 2d c7 e0 bc 3d 48 08 bd d0 40 56 3d
       0.0018194389 -0.027438724 -0.033272017 0.052307904
000090 39 ab 99 bd 8c f7 8a bd c3 e5 72 bd a2 5d 1a bc
       -0.07503361 -0.06785497 -0.05930115 -0.009421738
0000a0 fa 0a 3e 3c 22 fe 14 3d 5c 92 07 bc 34 2b 21 bd
       0.011599297 0.036375172 -0.008274641 -0.039347842
0000b0 9e 86 ae bd f1 b5 71 3d 3d 6c a0 3d c8 39 12 3e
       -0.0852177 0.059011403 0.07833145 0.14279854
0000c0 dd fe c7 bc e9 64 20 bd a5 73 74 bc 9e 63 74 bc
       -0.02441352 -0.039158735 -0.01492015 -0.014916329
0000d0 ba 0b 96 3d 33 90 31 3c 04 f9 0e 3d 66 8c a2 3c
       0.073264554 0.010837602 0.03490545 0.019842338
0000e0 65 ae 8f bc 75 4d 41 3c 6a 44 36 3d 92 7f 9b bb
       -0.017539212 0.011798252 0.04449884 -0.004745432
0000f0 b2 5d 05 be 02 3e 05 3b 3b f9 06 3c f3 54 0c bd
       -0.13024023 0.002033115 0.008238132 -0.0342607
000100 ef 6d 74 3b 0a 6e 66 3d bd 56 80 3c 14 5e 1d 3d
       0.003729697 0.056257285 0.01566636 0.038419798
000110 a5 15 37 3c c4 40 15 3d a7 fa 96 3c d6 56 83 bc
       0.011174594 0.03643872 0.018430067 -0.016032618
000120 46 81 a9 bb f3 68 5f 3d e0 50 75 bd e5 e0 cf 3c
       -0.0051728813 0.054543447 -0.05989158 0.025375793
000130 42 23 62 bc 49 fe 33 bd 1d bf 37 bd 00 24 1e 3d
       -0.013802351 -0.043943677 -0.044859994 0.03860855
000140 cd 8a 71 3b a8 28 58 3d b8 55 31 3b b4 0b e8 3c
       0.0036856413 0.052773148 0.002705915 0.028325893
000150 b0 8a a6 bc 35 94 da bc 71 14 8a bc 4e 18 72 3d
       -0.020329803 -0.026681999 -0.01685545 0.05910521
000160 5f 3a bb 3d e1 c5 38 bc 3f a6 ce 3c 36 9a 8d 3c
       0.09141993 -0.011277647 0.025225757 0.017285448
000170 51 08 27 3d 22 3a d5 bc 40 a6 aa bd 4c aa 35 3d
       0.040779416 -0.026028696 -0.08332491 0.04435186
000180 d1 5f 9f bd d3 ee 97 bd 19 30 55 bd fc f3 a0 bd
       -0.077819474 -0.07418599 -0.052047823 -0.07859036
000190 1b ce ad bc c5 40 ae bc 9f 64 85 bd 7a f2 13 3d
       -0.021216443 -0.021271119 -0.065133326 0.036119916
0001a0 45 d6 a0 3c 1c ac a1 bc bf 41 d8 3c eb 9e 02 3e
       0.019633422 -0.019735388 0.026398538 0.12755935
0001b0 95 b6 c4 bc 2f af 4d 3d 45 4b fc 3c f9 13 1e 3d
       -0.024012843 0.050215896 0.03079761 0.038593266
0001c0 35 43 8f 3d 33 2a 0c 3e 10 f8 a9 3d 2a ff fa 3c
       0.069952406 0.13687973 0.08299267 0.03063925
0001d0 af 0c 23 3d 62 ef a6 3b b9 ba 1f bc d8 9b 8e bd
       0.039807018 0.0050944546 -0.009749108 -0.069633186
0001e0 20 c5 3f bd 14 d4 07 3d 0c a7 c8 bc 97 bd b8 bc
       -0.046818852 0.033161238 -0.024493717 -0.022551341
0001f0 12 f7 2f 3d 4e cb a4 3c cd 99 b8 3a 52 5d 02 ba
       0.042960234 0.020116474 0.0014083922 -0.0004973012
000200 be af 23 bc cb 2e 26 3d 58 f1 62 bd 8e b5 66 3c
       -0.009990631 0.04057197 -0.055405945 0.014081372
000210 84 73 b9 3b f5 bd c2 3c f3 91 40 3d b9 71 89 bc
       0.0056595225 0.02377222 0.047014188 -0.01677786
000220 f1 43 a5 bc ac 33 ff 3c aa be 20 3d d7 4e 35 3d
       -0.020173999 0.031152569 0.03924433 0.04426464
000230 15 17 9c 3c 49 bd 82 3c 0e d4 55 3c df 5a 30 bd
       0.019053975 0.015959399 0.013051046 -0.04305541
000240 ed 3c f1 bc 06 13 a1 bd 78 42 9b bd 47 c2 95 bc
       -0.029447997 -0.078649566 -0.07581037 -0.018281115
000250 37 11 68 bd 42 b6 b5 bc 40 af 13 bc 98 8d dd bc
       -0.056657042 -0.022181634 -0.009013951 -0.027045056
000260 7b 89 0a 3c 3b 31 3d 3d c2 da f8 3a 77 e6 20 b9
       0.008455629 0.046189528 0.0018986093 -0.00015344644
000270 05 da fe 3b cb 64 53 bc 91 95 d2 3d 1e 28 64 3d
       0.007777455 -0.012902449 0.10282434 0.05570232
000280 bb 2b 64 3d 58 0e 95 3d 80 39 0a bd e6 8b f4 3c
       0.055705767 0.072781265 -0.033746243 0.029851865
000290 62 b1 c5 bc d9 2d 36 3d 2d a5 dd bc 13 68 0f bd
       -0.024132434 0.044477317 -0.027056301 -0.035011362
0002a0 7e 5d 12 3d dd 3f 10 3c 72 76 89 3c 16 a6 c7 bc
       0.035733692 0.008804289 0.016780112 -0.024371188
0002b0 fa 36 09 bd d6 ae 6e 3d c5 32 71 bc 9b e5 f4 bc
       -0.033499695 0.058272205 -0.014721577 -0.02989464
0002c0 c2 ad 3e 3d 17 fa 0a 3d 85 5d e7 3d 12 a5 90 3d
       0.046552427 0.03392991 0.11297134 0.07062735
0002d0 84 c4 54 bc 55 59 05 3d 6e b6 d7 bb 62 ed 70 3c
       -0.012986306 0.032555897 -0.0065830266 0.014705034
0002e0 3c 69 1a 3c dd cd d2 3c 21 f4 09 bd dc 11 4b bd
       0.009424504 0.025732929 -0.033680085 -0.04957758
0002f0 e2 5f 08 bd 9b 58 90 bd 89 43 88 bd 5f 29 1f bd
       -0.033294566 -0.0704815 -0.06653506 -0.038857814
000300 16 53 20 bd 97 bb fe 3c 32 37 a1 3d be 86 89 3b
       -0.039141737 0.03109531 0.07871856 0.0041969707
000310 e0 5c 09 bd 31 5e b3 bc af 3d 3c 3d 4f 5d f1 3d
       -0.033535838 -0.0218955 0.045957264 0.11785375
000320 4d c6 1e bd c9 84 d5 3a 97 69 5e bd b7 09 f1 3a
       -0.038763333 0.0016290183 -0.054299917 0.0018389736
000330 7c d5 b2 3d 85 75 e6 3c 43 8c 3f 3d e9 b0 31 bd
       0.08732125 0.02813221 0.046764623 -0.043381605
000340 d0 35 28 3b 35 cd 4d 3d 6e 38 42 3e 7c cf d7 3d
       0.002566684 0.05024453 0.18966839 0.105376214
000350 1f 60 fe bc dd ec bd bd d7 3f 6c bd b6 9e d9 3d
       -0.031051693 -0.09273694 -0.05767807 0.10625975
000360 78 bf c7 bb df b3 53 bc 7f 17 c8 bc 11 08 a9 3d
       -0.006095823 -0.012921303 -0.024425266 0.08253492
000370 e6 46 97 3d 1d 0d c3 bb 66 75 28 3c 49 89 e5 bc
       0.0738657 -0.005952491 0.010281896 -0.028019564
000380 9f 1f 9e 3d 0c 92 03 3e 84 bd c4 3d d8 3c d0 bc
       0.07720875 0.12848681 0.0960646 -0.025419638
000390 ea cd 80 3b c6 a0 8a bd 4d c0 7a bc 0f a3 31 bc
       0.003930797 -0.06768946 -0.015304637 -0.010842099
0003a0 c3 b4 e8 bb 8b 4e 95 bc 84 bb f9 3b f4 39 79 39
       -0.0071016266 -0.018225929 0.0076212306 0.0002376808
0003b0 ad 0b 3b 3d 0c 4b b2 bc 5d 81 9a ba b2 4c 4f bd
       0.04566543 -0.0217643 -0.0011787821 -0.05061025
0003c0 db d0 0f 3c eb 9d b0 bc 52 a7 2f bc 08 c0 40 bd
       0.008777822 -0.021559676 -0.010721045 -0.047058135
0003d0 3c 0c 96 bd eb 62 b6 bc 40 18 82 bd 59 81 3f bd
       -0.07326552 -0.022263965 -0.063522816 -0.046754215
0003e0 c4 87 59 3d 5a 60 17 bd 49 85 10 bd 1c b3 08 3d
       0.05310799 -0.036957122 -0.03528336 0.033373937
0003f0 23 c6 f7 3b 28 ee 36 3c 1c eb 14 3c 0a 1a e6 3d
       0.0075614615 0.011165179 0.009089258 0.11235435

fc1.bias f4 [50]
000000 c0 7d 3b 3d 11 62 aa bc 92 9b 54 3b ea d9 90 3d
       0.04577422 -0.020798715 0.003244136 0.07072814
000010 43 d3 10 bd fc f3 a0 3c 43 d7 8b 3c a1 2f 48 3c
       -0.035357725 0.01964759 0.017070418 0.012218387
000020 30 27 ea bc 28 fd a5 bc 9d e1 d4 3a b8 99 e6 bc
       -0.02858314 -0.020262316 0.0016241554 -0.02814947
000030 f9 2b 4d bd 6c 37 31 3d db df e9 3c fa 7e 98 3c
       -0.050090764 0.043265745 0.028549125 0.018615235
000040 eb 13 93 3d df 9a 84 3d 1c 87 85 3d ff d7 e6 3b
       0.071815334 0.06474852 0.06519911 0.0070447917
000050 ec c8 6e 3d b2 b9 fc bc 11 c2 63 3c d4 16 19 bc
       0.058297083 -0.030850265 0.0139012495 -0.009343822
000060 2f 46 01 bd 86 4d 33 3a 03 5a ee 3c 34 c8 73 3d
       -0.031561073 0.000683986 0.029095655 0.0595171
000070 5a 83 3a 3d 19 b9 a7 3c c7 9a 00 bd ef 15 90 3d
       0.045535423 0.020474004 -0.031397607 0.070354335
000080 f1 c2 d9 bc 31 5e 20 bb 62 58 89 3c d9 48 89 3c
       -0.026582213 -0.0024470205 0.016765777 0.01675837
000090 41 20 3a 3c 1b de 3c bb 32 58 5d 3d 48 1d 3c 3d
       0.011360229 -0.0028818909 0.054039188 0.045926362
0000a0 73 42 9f 3c 9b 56 47 3d 0c ba 11 bd 40 4b 30 bd
       0.019440865 0.048666578 -0.03557782 -0.043040514
0000b0 4a 13 e8 3a c8 5b 24 3d 27 68 8b 3c 81 43 36 3d
       0.0017705944 0.040126592 0.017017437 0.04449797
0000c0 29 b6 a3 bc ce 50 17 3d
       -0.019984322 0.036942296

fc2.weight f4 [10, 50]
000000 40 e5 19 3e e7 dc 4a bd a0 fb 3a be 68 df 71 bd
       0.15028858 -0.049527075 -0.1826005 -0.059050947
000010 2a 09 d5 3d 14 56 15 be d4 24 3d 3e 61 db 1a 3e
       0.104021385 -0.14583617 0.1847108 0.15122749
000020 b3 f8 34 3e 3c 17 48 bd e4 2b 53 be c8 09 45 be
       0.17672996 -0.048850283 -0.20622212 -0.19242013
000030 76 5c e9 3d d6 43 b6 3c d3 0f ad bd ab eb 19 be
       0.11394589 0.022249144 -0.08450284 -0.15031306
000040 e1 b5 05 be dd 04 a7 bd a8 80 63 3e 29 e2 33 be
       -0.13057663 -0.081552245 0.22217047 -0.17566742
000050 93 47 bc bc 11 0f 9a 3e f2 98 8b 3c 47 71 41 3e
       -0.022983348 0.3008962 0.017040703 0.18890868
000060 11 de eb bd 0b 77 4f be a4 15 10 be 5c f7 7c bd
       -0.11516965 -0.20260255 -0.14070755 -0.061759338
000070 27 63 29 3d 94 00 f1 3d 1a bf 19 3e d2 71 72 3e
       0.041354325 0.117676884 0.15014306 0.23676232
000080 7e 24 a8 be 98 f6 18 bc d3 f0 1b 3e 1d b8 ce bd
       -0.3284034 -0.009336136 0.15228586 -0.100937106
000090 52 0b 9b be 01 9b 5f 3e de f9 0e 3e 89 ad 41 3d
       -0.30282074 0.21836473 0.13962504 0.047284637
0000a0 6c bb 18 bd 2a ba 3e be 98 2b 8c bd fe 19 22 bd
       -0.037288114 -0.18625703 -0.06844252 -0.03957557
0000b0 eb f8 da bd 34 ea 1a 3e e8 25 90 be a2 85 37 be
       -0.106920086 0.15128404 -0.2815392 -0.1792207
0000c0 0c 86 81 3e 91 3a 63 3e 1e 68 df 3d 7e 35 2a 3e
       0.25297582 0.2219031 0.10908531 0.16621968
0000d0 28 da 42 be 1b a7 4a 3e 44 eb b7 3d d7 08 ea 3d
       -0.19028533 0.19790308 0.0898042 0.11427467
0000e0 a7 6a 28 be 1f ac 32 3e 2c 96 d2 bd 3b 9e 2d 3e
       -0.16446935 0.17448471 -0.10282549 0.16954891
0000f0 9e 1d 0e 3e c3 2e 0a bb d5 0e 93 be 68 16 9d be
       0.13878486 -0.0021085 -0.28722253 -0.30681157
000100 2e a7 61 3e 2c 91 31 3e e1 16 ba 3d 62 b6 67 3e
       0.2203643 0.17340535 0.09086395 0.22628167
000110 9b 45 29 be af 52 59 be 1c fc 96 3e b2 9b ad bd
       -0.16530459 -0.21222948 0.2948922 -0.08476962
000120 b6 61 3e 3e 06 bf b5 bd 61 2b 45 be 5d 25 e8 3d
       0.18591961 -0.088743255 -0.19254829 0.113352515
000130 4e 2a 0d 3e 5f a4 3d be b5 5b b9 3d 3f 36 80 bc
       0.13785669 -0.18519734 0.09050695 -0.015650867
000140 50 64 de bd dd 9d 93 bd 36 5f ad 3c d4 7c 2b be
       -0.10858977 -0.072078444 0.021163564 -0.16746837
000150 0b 59 16 3e a6 d0 2d 3e 1a 4a 4b 3e 27 28 14 be
       0.14682405 0.16974124 0.19852486 -0.14468442
000160 b6 cb 20 be cc 02 38 be d4 d4 6c 3e 4b 6f 26 bd
       -0.1570271 -0.17969817 0.23128062 -0.04063348
000170 b5 a7 d8 bd 15 54 28 3d 38 03 a2 3d 9b 0e ed 3d
       -0.105788626 0.041095812 0.0791077 0.115750514
000180 24 1b 14 be 21 61 67 be b8 ac ff bc 79 7e b8 bd
       -0.14463478 -0.22595645 -0.031210288 -0.09008498
000190 5e 6e 04 3e 76 be b7 3d d1 4b ea bd a9 f8 1d be
       0.12932727 0.089718744 -0.11440242 -0.15426888
0001a0 c3 cf 41 3e 6c b9 79 3d 1b 3a 21 be 2f ee 3e 3e
       0.18926911 0.060967848 -0.15744822 0.18645547
0001b0 8d a9 d1 3d d9 7a 97 3e 8f cf 2c 3e 8e f6 8d be
       0.10237417 0.29585913 0.16876052 -0.2772717
0001c0 ff 47 52 3d 9b c8 68 be 7e 41 c4 bd f5 88 56 3e
       0.051338192 -0.22732775 -0.09582804 0.20950682
0001d0 cd a6 2e be d1 57 71 3e a9 7c 13 bd e6 48 50 3d
       -0.17055817 0.23568656 -0.036007557 0.05085077
0001e0 cb 72 3c be 09 d5 86 3e 1e de 52 be ab 1c 47 bd
       -0.18403165 0.26334408 -0.20592543 -0.048611324
0001f0 2c 5d 96 bb 3c 22 ba 3d 3e f5 a2 bc 49 b4 9c 3d
       -0.0045887437 0.09088561 -0.019892331 0.07651574
000200 cc 95 d5 bd 01 fd 35 3e 3c 18 20 3e 26 1e 67 be
       -0.10428962 0.17772295 0.15634245 -0.22570094
000210 90 6c 63 3d 1e 5e 0f 3e 17 0e 59 3e dd ce 27 3d
       0.055523455 0.14000747 0.21196781 0.040968765
000220 1a 09 f7 bd 1d c8 37 bd bb 55 62 bd 28 36 11 bd
       -0.12062283 -0.044868577 -0.05525754 -0.035452038
000230 65 12 4e be 07 c9 4d 3e dc 71 00 be 2d eb 2c 3d
       -0.20124204 0.20096217 -0.12543434 0.04221647
000240 43 a3 ec 3c 7a 66 fe 3d 53 7c 45 be 73 ed 26 3e
       0.028886443 0.124218896 -0.19285707 0.16301517
000250 a7 7e 70 bc 11 10 69 bd ad 32 54 3a 6d 99 02 be
       -0.014678634 -0.056900088 0.00080947095 -0.1275384
000260 e7 b6 3e 3e 43 ca 60 be 83 f0 4e 3e a5 a9 14 bc
       0.18624459 -0.21952157 0.20208935 -0.0090736495
000270 a7 0d bf bd 25 be 52 3e 2d 90 13 3d 34 34 64 bd
       -0.09328776 0.20580347 0.03602617 -0.055713847
000280 94 d5 db 3d a2 a8 4e 3e 12 4c 04 be e4 ce 4b 3d
       0.10734096 0.20181516 -0.12919644 0.049757853
000290 1a e0 30 be ed c6 6b 3e fb 69 58 3e f5 6f d0 bd
       -0.17272988 0.23025103 0.21134178 -0.10177604
0002a0 c5 f6 68 bd 82 aa ca 3d 48 4f 83 bd 6b 54 8f bd
       -0.056875963 0.09895803 -0.06411606 -0.06998523
0002b0 10 6e 29 be 20 b3 36 be 9b 9a 22 be 15 aa 44 be
       -0.16545892 -0.17841768 -0.1587929 -0.19205506
0002c0 f7 1a 4c be d4 2c a6 bd d8 6a 08 bd bd 0e c7 bc
       -0.19932161 -0.08114019 -0.03330502 -0.02429902
0002d0 9a aa 32 3e 73 b0 1f be 3f 44 7c 3d 6a 55 6f 3d
       0.17447892 -0.15594654 0.061588522 0.058431067
0002e0 9a 3c 50 3e a0 6b 86 bd f0 5f 58 3e 79 02 88 3e
       0.20335618 -0.065634966 0.21130347 0.26564386
0002f0 a8 76 85 3e 46 64 cb bd a2 46 03 be 66 c9 c0 ba
       0.2606709 -0.09931235 -0.12819913 -0.0014708459
000300 ab 40 34 be 06 a6 d7 3c e7 d2 b4 bd cb 7a 39 bd
       -0.17602794 0.026324283 -0.08829289 -0.04528312
000310 ce 07 df 3c 05 e2 38 bd 82 b4 dc bd 8a 35 40 be
       0.027225401 -0.045137424 -0.10776617 -0.18770424
000320 3d 7c 38 3e b2 5d ba bd c8 78 2e 3e ed 49 31 3e
       0.18016143 -0.09099902 0.17038262 0.17313357
000330 8f f4 48 be 04 0f 03 3e d9 51 86 bd d7 4b 39 be
       -0.19624542 0.12798697 -0.0655858 -0.18095337
000340 b3 ba 4a be c0 d6 a7 3d bc 46 33 be c0 cb 23 3d
       -0.19797783 0.08195257 -0.17507452 0.039989233
000350 73 a4 0a 3e 17 95 a8 3d ba 83 51 3e 28 41 4c be
       0.13539295 0.08231562 0.20460406 -0.1994673
000360 51 b4 25 be 40 4d c6 bd bb ad f2 bd 68 32 f8 3d
       -0.16182067 -0.09682703 -0.11849543 0.12118989
000370 38 4c b6 3d a2 7b 0a 3e 24 d3 c4 3d f7 8f dd bd
       0.08901256 0.13523725 0.096105844 -0.10818475
000380 9a c8 75 3e 2d 06 46 be 81 3b 35 3e 74 c6 23 3e
       0.24002305 -0.19338293 0.1769848 0.15993673
000390 cd 86 8d 3d ac 36 ee 3d 4e db 9a be 90 6e 93 bd
       0.06910477 0.116315216 -0.3024544 -0.071988225
0003a0 b5 47 af 3c 11 58 8a be 9d 66 d9 bd 3c cb 4b 3e
       0.021396497 -0.27020314 -0.10615275 0.19901747
0003b0 0d 8d 40 3e b2 df dd bd dc 8f 6c be 1a a5 8f 3d
       0.18803807 -0.10833682 -0.23101753 0.070139125
0003c0 67 ac b3 bc 01 b5 02 3e 09 2c cd bd 24 96 0d bd
       -0.021932794 0.1276436 -0.10018165 -0.034567013
0003d0 3d 14 07 be 70 33 09 3d cc 45 28 3e 70 33 97 3e
       -0.13191314 0.03349632 0.16432875 0.2953143
0003e0 46 26 74 bd 2a cf 6b bd 8f 9a ee bd a7 52 e9 bd
       -0.059606813 -0.057570614 -0.116505735 -0.11392718
0003f0 3d 20 06 3e 16 21 cb 3d 01 98 cb 3d 02 27 17 bd
       0.13098235 0.0991842 0.09941102 -0.036902435

fc2.bias f4 [10]
000000 8d 1d c9 3c e3 f4 42 3c 32 21 8b 3c b0 1a 10 3e
       0.024550224 0.011899206 0.016983602 0.1407268
000010 c3 0a d1 bd dc d5 14 3d 8f cd b3 3d 43 a7 22 be
       -0.10207131 0.036336765 0.087794416 -0.15884118
000020 be 61 5e 3e 8b 58 a9 3d
       0.21716973 0.08268841

momentum_buffer f4 [10, 1, 5, 5]
000000 2a 52 81 3c 5e c9 97 3c 25 c5 47 3c 32 ff 76 3b
       0.01578625 0.018528637 0.012192999 0.003768873
000010 98 2f 08 bb ad 42 9f 3c f3 a8 a4 3c 2f fc 5c 3c
       -0.0020780321 0.019440973 0.020100093 0.01348786
000020 2f 6e 03 3c 16 e5 df 3b ca 71 10 3c 00 25 b3 39
       0.008021875 0.006832729 0.008816192 0.00034169108
000030 78 98 b3 ba 4a 4e 10 3c 24 70 b6 3b d8 f6 99 3b
       -0.0013702055 0.008807728 0.0055675674 0.0046986155
000040 14 79 e1 ba 00 12 38 3a 0b d8 0b 3c 6f 46 f9 3a
       -0.0017202222 0.0007021725 0.008535395 0.0019018183
000050 f6 66 d5 3b 11 fb e7 3b a5 4e ec 3b 5c ba 2f 3c
       0.006512518 0.00707949 0.0072115236 0.010725584
000060 05 5a 72 3b 81 96 c8 3a 18 04 86 3b 06 27 6f 3b
       0.0036979925 0.0015303643 0.0040898435 0.0036491766
000070 30 f5 11 3a 6a e7 75 bb 23 92 52 3b 85 35 85 3b
       0.0005567847 -0.0037521967 0.0032130561 0.004065218
000080 ee fa 42 3b d2 99 f3 3a d8 dd c3 bb 4e c0 9f 3b
       0.0029751617 0.0018585271 -0.0059773736 0.0048752194
000090 e1 6e 60 3b 79 63 b1 3b b6 ed fe 3a 00 c1 29 3a
       0.0034245776 0.0054134694 0.0019449505 0.00064755976
0000a0 57 76 e7 3b c7 a4 f6 3a 80 ee 47 3b e2 77 23 3a
       0.0070636678 0.0018817418 0.0030507147 0.00062358205
0000b0 28 6a 45 3b e2 e3 8e 3b b0 84 33 bb 58 be b7 ba
       0.0030123089 0.004360662 -0.002739232 -0.0014018519
0000c0 c3 f1 2a 3b fd e8 96 3b 4e 78 10 3d 06 a0 f7 3c
       0.0026084043 0.004605411 0.03527098 0.030227672
0000d0 a6 cd a3 3c d8 c4 7d 3c b1 f0 36 bb 76 f5 02 3d
       0.019995522 0.015488826 -0.002791446 0.03197237
0000e0 a5 fc b0 3c 26 55 49 3c fc 20 5b 3c a6 63 29 bb
       0.021604845 0.012288367 0.013374563 -0.0025846749
0000f0 ec a3 9f 3c 62 c7 7a 3c 82 f5 79 3c 68 55 2b 3c
       0.019487344 0.015306326 0.0152562875 0.010457374
000100 ea a6 66 bb d7 b4 a3 3c f9 d6 b4 3c 72 ad ae 3c
       -0.0035194703 0.019983692 0.022075163 0.02132294
000110 ee e2 10 3c 3f b3 97 bb 14 86 eb 3c f8 0a e4 3c
       0.008843167 -0.004629522 0.028750457 0.027837262
000120 64 7d 8e 3c ba 06 30 3b 11 b9 cc bb e4 5c 11 bd
       0.017393775 0.0026859478 -0.0062476476 -0.035488978
000130 6a 79 29 bd b9 ce e0 bc 7b ee 41 bc 9c 3a 93 bb
       -0.041375555 -0.027442323 -0.011836643 -0.0044930708
000140 94 f4 13 bd 8e 35 3a bd 38 37 e6 bc d9 83 36 bc
       -0.03612192 -0.04546123 -0.028102502 -0.011139833
000150 16 3b 24 bc 19 65 a8 bc 7d 28 ff bc a4 73 4b bc
       -0.010023853 -0.02055602 -0.031147236 -0.012417708
000160 5a 07 55 bc 3e 68 25 bc 36 fa 98 bc 28 14 d3 bc
       -0.013002241 -0.010095654 -0.018673997 -0.025766447
000170 be 8b 5c bc 8f 31 01 bc ea ad 71 bc e4 f5 37 bc
       -0.0134610515 -0.007885351 -0.014750937 -0.0112280585
000180 83 42 9c bc 80 65 7d bc 1d fa 3b bc 5b cc 0d bc
       -0.019074684 -0.015466094 -0.011473206 -0.008654679
000190 41 0b ec 3c f9 d8 fa 3c 7f 45 c4 3c a3 b5 b6 3c
       0.02881396 0.030621039 0.02395892 0.022303408
0001a0 d8 db 49 3c 19 25 c0 3c 06 81 63 3c cc d2 fd 3b
       0.012320481 0.02345519 0.013885742 0.007746076
0001b0 f5 f1 e8 bb 6a 6f f1 bb a5 2e 8c 3c 02 75 cc 3b
       -0.0071089217 -0.007368018 0.017112086 0.0062395344
0001c0 4d cb 01 bc f1 df aa bc c2 ea 96 bc d0 e1 fc 3b
       -0.007922006 -0.020858737 -0.018422488 0.0077173486
0001d0 87 00 f3 3b 70 a4 45 bc 5a de be bc 96 d0 f2 bc
       0.0074158343 -0.012063131 -0.023299385 -0.029640477
0001e0 89 2c 1a 3c 24 51 99 b9 69 7a 61 bc f6 bf 95 bc
       0.009410032 -0.0002924289 -0.013762095 -0.01828001
0001f0 f4 dc 1f bc 53 4f 71 bc f8 eb 37 bc f0 88 3f bc
       -0.009757269 -0.014728385 -0.011225693 -0.011690363
000200 e0 d3 38 3b 5c 61 48 3c 6e 00 cf bc 06 35 a7 bc
       0.002820246 0.0122302435 -0.02526876 -0.020411026
000210 e8 22 6a bc d8 df 17 3c 00 2c 4d 3a 5a 16 9a bc
       -0.014290549 0.009269677 0.0007826686 -0.018809486
000220 7c c9 b2 bc 5c 75 7f bc 3a 56 27 bc 68 30 f5 ba
       -0.02182459 -0.0155919455 -0.010213429 -0.0018706443
000230 f0 84 d4 3b d9 90 be bb c4 18 33 bc 9d 71 01 bc
       0.006485574 -0.005815607 -0.010931198 -0.007900623
000240 bb 5c 79 bc 2e 58 e4 3c c5 c4 5d 3c 30 72 52 b9
       -0.015219863 0.027874079 0.013535683 -0.00020069699
000250 d0 33 a1 b9 40 d6 0e 3b d0 19 0b 3c 3e 56 1b 3c
       -0.00030746916 0.0021795183 0.008490041 0.009481011
000260 e6 56 c9 3c fd 6d f8 3c 04 fe dc 3c 32 a5 b7 3a
       0.02457757 0.030325884 0.026976593 0.0014011024
000270 1f 84 ae 3b 67 b7 ae 3c a2 08 d5 3c a0 80 a9 3c
       0.0053258087 0.021327687 0.026005093 0.020691216
000280 72 ce 0f ba 1b 12 07 3c 5f dd 92 3c ac fb c4 3c
       -0.000548578 0.008244063 0.017927824 0.024045788
000290 2c 89 b2 3c c0 c5 13 3c 38 f0 64 3c f1 40 8b 3c
       0.021793924 0.009019315 0.013973288 0.01699874
0002a0 c8 a0 ad 3c fc 20 5a 3c b2 8e 73 3c 16 61 8d 3c
       0.02119483 0.013313528 0.014865564 0.017258208
0002b0 2a e3 ad 3c e4 c0 b3 3c 38 b9 e0 3b 06 f6 a5 3b
       0.021226484 0.021942563 0.0068580173 0.0050647287
0002c0 96 dc 5f 3c d9 42 df 3b ce f2 e7 bb f2 9a 8f bc
       0.013663432 0.006813389 -0.007078505 -0.017529938
0002d0 f0 86 27 3c 49 78 48 3c 40 2b a3 3a 46 a8 57 bc
       0.010225043 0.0122357095 0.0012448803 -0.013162678
0002e0 5a 3f c4 bc 1e ef 44 3c 0e f5 5e 3c 20 29 0c 3a
       -0.02395599 0.012019901 0.01360823 0.0005346704
0002f0 7e 58 2f bc ef 10 a0 bc fe 5a c5 3b 46 c6 9b 3b
       -0.0107022505 -0.019539325 0.00602281 0.0047538606
000300 3a 4c 1f bc 46 ff 9b bc 46 4e b7 bc 70 f9 4c ba
       -0.009722764 -0.019042622 -0.02237619 -0.00078191515
000310 8c 0e 57 bc 9d 58 8a bc b6 74 3c bc f0 6f 83 3b
       -0.013126027 -0.016887957 -0.011502435 0.0040111467
000320 e6 a5 d3 3c da 1f 6e 3c 10 57 d2 ba fa af 2d bc
       0.025835942 0.014533961 -0.0016047675 -0.010601038
000330 f1 dd 06 bd 0a c4 d9 3c f2 ef 32 3c e0 27 48 3b
       -0.032926504 0.026582737 0.010921465 0.0030541345
000340 ec 9f 08 bc c7 d7 f9 bc 9e 3c df 3c bb dc 85 3c
       -0.00833891 -0.030498398 0.027250584 0.016340604
000350 6c d4 b2 3a 9e 5d a3 bc 3c 83 f8 bc 4b bb 02 3d
       0.0013643629 -0.019942101 -0.030336015 0.031916898
000360 00 8e 08 3d d8 2a 4e 3c 41 46 79 bc 54 59 fa bc
       0.033338547 0.012583457 -0.015214504 -0.030560173
000370 3c 02 1e 3d 8b 37 f2 3c 59 a6 23 3c d8 f8 4e bc
       0.03857635 0.0295675 0.009988391 -0.012632571
000380 1e 3c 9e bc 9f b8 10 bd 1e 86 0f bd a5 df b1 bc
       -0.019315775 -0.03533232 -0.035040013 -0.021713087
000390 d8 f4 78 b9 11 19 cf 3b 54 b5 0a bd 2b 64 be bc
       -0.00023742334 0.006320127 -0.033864334 -0.023241123
0003a0 f2 7a eb bb ef 52 a2 3b ce b7 da 3b 69 31 08 bd
       -0.007186287 0.004953734 0.0066747433 -0.033250246
0003b0 b8 cf 8d bc a0 9c 2d 39 6c e9 02 3c 88 a2 14 3c
       -0.017310962 0.00016556913 0.007990222 0.009071954
0003c0 0a 09 ca bc c7 2e 71 bc c3 7d 9f bb cc 32 d3 3a
       -0.024662513 -0.014720625 -0.004867287 0.0016113161
0003d0 c4 e9 0e 3c 6d eb 95 bc fc 44 11 bc 1c 01 66 ba
       0.008722726 -0.018300736 -0.008866545 -0.0008773969
0003e0 22 d2 d2 3b 22 01 72 3c
       0.006433741 0.014770778

momentum_buffer f4 [10]
000000 b2 8f a5 bb fd e0 da ba c6 99 8b 3b 82 6a 2c 3b
       -0.00505253 -0.0016699132 0.0042602746 0.00263086
000010 ea 5f 16 bb 00 58 a8 39 fe 06 a9 3b d4 a4 9a bb
       -0.0022945353 0.00032109022 0.0051583042 -0.004719356
000020 cd 5a 96 bc d8 22 44 bc
       -0.018353844 -0.011971198

momentum_buffer f4 [20, 10, 5, 5]
000000 64 06 14 bc 09 c4 4c bc 14 a7 d1 ba c9 1f a0 bb
       -0.009034727 -0.01249791 -0.0015995228 -0.0048866016
000010 20 57 17 bc 0c e2 80 bc 12 39 47 3b 58 80 8e ba
       -0.009237081 -0.015732788 0.0030399007 -0.001087199
000020 c7 4e 47 bc 75 61 49 bc db bd 4c bc 83 a5 b7 bb
       -0.012164778 -0.012291302 -0.012496437 -0.0056044473
000030 e3 0a 27 bc 76 d2 38 bc 5c 1e c5 bb 3a 96 32 3c
       -0.010195467 -0.011280647 -0.006015582 0.010900075
000040 e3 0a 11 3c 33 1c 5b 3c ed e9 78 3c b7 46 0f 3c
       0.008852693 0.013373422 0.015192491 0.008744887
000050 00 90 8a b7 2e ac ef 3b 26 80 90 3c 89 55 b9 3c
       -1.6517937e-05 0.0073142266 0.017639231 0.022623794
000060 99 88 fb 3b 9c 69 8c bb 1b 42 b9 ba ec fc 0d 3b
       0.007676196 -0.0042850506 -0.0014134081 0.0021665646
000070 26 b5 bc 3b db 7e ab 3b 26 31 5a bb 1d 7c 74 bb
       0.0057588993 0.005233628 -0.0033293455 -0.0037305423
000080 eb 4c bf 3b d1 2b 3c 3c b5 5f 0e 3c df 38 33 bc
       0.0058380268 0.011485056 0.0086898105 -0.010938852
000090 20 90 0b ba 28 23 c5 3b ba ac e0 3b 98 e4 43 3a
       -0.00053239055 0.006016154 0.006856528 0.0007472723
0000a0 e6 e0 1e bc 0b e0 a1 ba f4 1b 85 bb ae ee 17 bc
       -0.009697175 -0.0012350095 -0.00406217 -0.009273214
0000b0 17 64 51 bc 1f 50 1c 3b df 4c 82 3b 44 64 43 bb
       -0.012780211 0.0023851467 0.003976449 -0.0029814402
0000c0 f6 43 24 bc 6c eb e1 bb 85 d6 bc bb 6d e5 0e bc
       -0.010025969 -0.0068945196 -0.0057628774 -0.008721692
0000d0 ae 73 b3 bb 9f a8 1e bc 9c 41 54 bc 04 97 48 bc
       -0.0054764366 -0.009683757 -0.012955096 -0.012243036
0000e0 ca 90 e4 bb 7a ef f5 bb e4 da 6f bc e7 48 86 bc
       -0.006975268 -0.0075053545 -0.01463959 -0.016392184
0000f0 a4 d6 89 bb 90 95 3e bb 75 3b b3 bb 8c b0 9d bb
       -0.0042064954 -0.0029080845 -0.0054697343 -0.004812306
000100 a0 df 59 bb 5f c4 fe 3b ac b0 af 3b 82 5f 06 3c
       -0.0033244863 0.007774874 0.005361637 0.008201482
000110 fe 2b 4a 3c 09 aa 05 3c d1 12 af bb 78 39 14 bb
       0.01233959 0.008158215 -0.0053428193 -0.0022617262
000120 5e c2 9b 3b ce d1 4a 3c e0 09 2c 3c dc 7f 0f bd
       0.004753395 0.012379123 0.010500401 -0.035034046
000130 c4 0c 18 bd 7c dc 6d bc 5e 5f 84 bb 87 02 74 3b
       -0.03712155 -0.0145179 -0.004039689 0.0037232952
000140 8c 68 32 bd 2e fb 3f bc 78 a5 99 3c f7 8c e3 3c
       -0.043556735 -0.011717601 0.01875566 0.027777178
000150 f4 54 74 3c 25 d6 59 bd fe 95 81 3c e8 fe 44 3d
       0.0149128325 -0.05318274 0.015818592 0.04809466
000160 16 f3 ec 3c a6 04 83 3c 1b 4a d2 bc 65 97 f3 3c
       0.028924506 0.015993427 -0.025670102 0.029735276
000170 78 f5 18 3d fe 48 91 3c d1 1c f1 3b 40 7a 94 3a
       0.037343472 0.017735 0.0073581715 0.0011327937
000180 1e 9d 8e 3c fa d7 84 3c 30 fe a0 3c 20 b5 d0 3b
       0.017408904 0.016216267 0.019652456 0.006369248
000190 9e 25 42 bc fc df b2 bc 60 69 09 bd 34 fa 22 bd
       -0.011849789 -0.02183532 -0.03354776 -0.039789394
0001a0 8c fd 57 bc db ac 8a bc 87 6b c6 bc 28 40 57 bb
       -0.013183009 -0.016928127 -0.024221195 -0.0032844637
0001b0 11 26 a3 3c 80 a8 27 3d 4c 7b c3 bc 5a aa ab bc
       0.019915612 0.04093218 -0.023862503 -0.020955253
0001c0 38 f2 37 3c 88 32 49 3d 68 f0 2f 3d 0e 0c 4a bd
       0.011227183 0.049120456 0.04295388 -0.049327902
0001d0 4c 30 c8 bc 50 14 53 bc ec 4e 9a bb e0 8a 7c ba
       -0.024437092 -0.012883261 -0.0047091153 -0.0009633731
0001e0 e9 91 03 bd 9e 12 e0 bc dd 1c 17 bd 88 a1 c5 bc
       -0.032121573 -0.027352627 -0.03689276 -0.024124876
0001f0 c6 d2 27 bc 2f 6f 05 bd 51 29 42 bd 68 3b 4c bd
       -0.010243123 -0.032576736 -0.047402684 -0.04986134
000200 14 38 34 bd 58 7c af bc 76 f2 fe bc 7e cd 9e bc
       -0.043998793 -0.021421596 -0.031121474 -0.019385096
000210 52 21 93 bc 60 1c 6f bb 08 36 fb 3b 20 a1 e1 bc
       -0.017960224 -0.0036485419 0.007666353 -0.02754265
000220 a5 79 62 bc ea ae 50 3c 78 9b da 3c bf 1c d2 3c
       -0.013822948 0.012737015 0.026685461 0.025648473
000230 9c 1f 00 bd 01 de 7e bc 6a 89 88 3c 06 88 0c 3d
       -0.031280145 -0.01555586 0.016667087 0.03430941
000240 36 cb c7 3c 6f 8a 19 bd 39 0e f0 bc 1e 78 0d bc
       0.02438889 -0.037485536 -0.029303657 -0.008634595
000250 9d 8c ad 3c 22 20 6a 3c 11 18 e9 bb 75 0f 0d bc
       0.021185214 0.014289888 -0.0071134646 -0.008609642
000260 40 d1 42 38 9e 08 46 3b c8 ff 22 bb 18 2b f9 ba
       4.6448084e-05 0.0030217539 -0.0024871696 -0.0019010035
000270 78 3b ea 3a 3c 35 ca 3a b8 8f 71 b9 ec fa 15 bb
       0.0017870506 0.0015427242 -0.0002303709 -0.0022885157
000280 50 51 38 bc 30 27 1a bb 90 df 50 bb 21 78 68 ba
       -0.011249855 -0.0023521893 -0.0031871535 -0.0008867998
000290 11 81 31 bb e4 b6 95 39 23 75 cf 3b 54 cd f5 3b
       -0.0027084986 0.0002855576 0.0063311025 0.0075012837
0002a0 d8 29 cd 3b f2 6f 95 3b 00 d0 62 3b 3e d5 0f 3c
       0.0062610917 0.004560464 0.003460884 0.008778868
0002b0 88 b4 67 3c 2b e7 46 3c e0 03 26 3a 39 d4 0f bc
       0.014142163 0.012140076 0.0006332975 -0.008778625
0002c0 ea 61 a2 bc 0d 8e ab bc ff d8 c4 bc 36 c6 95 bc
       -0.01982208 -0.020941759 -0.024029253 -0.01828299
0002d0 ac 19 99 bb 76 38 08 bd 26 da a6 bc d8 62 29 3c
       -0.00467225 -0.03325697 -0.020367693 0.010338508
0002e0 a4 42 0c 3d 8c 05 f1 bc d2 ae f1 bc 64 65 b9 bb
       0.03424324 -0.02942159 -0.029502306 -0.0056578387
0002f0 bd 2d 00 3d 15 57 3d 3d c8 56 64 bd 79 17 14 bd
       0.03129362 0.046225626 -0.055746824 -0.036155198
000300 d6 94 b9 bb 00 2f 87 37 c4 c9 ab bb 2f 75 29 bd
       -0.0056634946 1.611514e-05 -0.005242558 -0.04137152
000310 34 1d 98 bc 8d c0 b3 bc 48 41 f9 bc dc b4 98 bc
       -0.018568613 -0.021942401 -0.030426636 -0.018640928
000320 35 49 b9 bc 92 86 b3 bc 66 21 17 bc c3 8e 8b bc
       -0.022617916 -0.021914754 -0.009224271 -0.017035848
000330 60 b3 9b bc 91 e2 5b bc 38 54 95 bb 86 41 96 bc
       -0.019006431 -0.013420717 -0.004557159 -0.01834179
000340 f0 c3 ef bc ac c7 de bc 26 1d 88 bc 94 c0 b8 bc
       -0.029268235 -0.02719482 -0.016615462 -0.022552766
000350 41 b2 08 bd 73 21 e2 bc e8 6d 92 bc f0 9b e7 3b
       -0.03337312 -0.02760384 -0.017874673 0.0070681497
000360 3c 9d f2 3a 2e ba ed 3b e9 c2 20 3c d2 ca c5 3b
       0.0018509994 0.0072548604 0.009812095 0.006036141
000370 47 99 64 bb 7f 48 0c 3c bd 4e be 3c 65 7b b3 3c
       -0.00348814 0.008562206 0.023230905 0.021909425
000380 76 47 f7 3b 19 fa d2 bb 80 cd ed 39 90 d0 95 3b
       0.0075463606 -0.0064385054 0.00045357272 0.0045719817
000390 76 0c 01 bc 2c a9 df bc 65 8c c8 bb ae db 0b 3c
       -0.007876506 -0.027302347 -0.006120252 0.008536262
0003a0 a4 a0 1b 3c 8e 00 93 bb 44 b3 89 bc 51 7e 82 3b
       0.009498749 -0.00448615 -0.016809113 0.0039823432
0003b0 e2 55 b7 bb 30 12 5b bc cc 73 5c 3b 70 33 9c 3a
       -0.005594955 -0.013371035 0.0033638356 0.0011917185
0003c0 f8 b1 49 b9 4d ff 97 bc 1e 36 b2 bc 82 05 5b 3c
       -0.00019235152 -0.018554354 -0.02175432 0.013368012
0003d0 c1 68 90 3c f7 0b 39 bc ef 72 e2 bc 9e a7 95 bc
       0.017628076 -0.011294357 -0.027642695 -0.018268403
0003e0 22 77 e7 3b 6f f1 4b 3c ca 8d b0 bb f2 49 18 bc
       0.0070637623 0.012447699 -0.0053879963 -0.009294974
0003f0 e0 e9 f6 bb 30 8b 2d bb a1 da 06 bb 5f e7 3f bc
       -0.0075352043 -0.0026480667 -0.002057709 -0.011712878

momentum_buffer f4 [20]
000000 5b af a8 ba 1e be 85 bb a0 88 49 ba 75 25 60 bb
       -0.0012869643 -0.0040815016 -0.00076879 -0.0034202014
000010 3c 18 b7 ba 04 e0 35 3b bf 16 40 bb b6 d3 86 bb
       -0.0013969014 0.0027751932 -0.0029310433 -0.0041145934
000020 63 c0 11 3a ba b0 56 ba 52 1e f5 3a 80 3f c7 38
       0.0005559979 -0.00081897865 0.0018701053 9.500887e-05
000030 4e d9 47 bb 96 7b 16 3c d4 ce cb bb 90 f2 b9 b9
       -0.0030494514 0.009184739 -0.006219724 -0.00035466673
000040 d4 d3 9f 3b 5f 5e 28 ba a0 9d be bb 98 de 5c bb
       0.004877547 -0.0006422754 -0.00581713 -0.0033702012
