ckpt/s1.pth (torch, 179445 bytes, 16 tensors)

conv1.weight f4 [10, 1, 5, 5]
0	0x3deabb0e	0.11461459
1	0xbe013f5d	-0.12621827
2	0xbe042566	-0.12904891
3	0xbd0557df	-0.032554504
4	0xbe84e5f8	-0.25956702
5	0x3e3aade3	0.18230395
6	0xbbc8b515	-0.0061251023
7	0x3dad7c21	0.08470941
8	0x3cac150f	0.021006135
9	0xbc86cedc	-0.01645606
10	0x3e26d4f5	0.16292174
11	0x3e0da2e4	0.13831669
12	0x3e49e0cf	0.19714664
13	0x3d4fe37a	0.050754048
14	0x3d910a50	0.07082045
15	0x3cb6489b	0.022251418
16	0x3ddee0cc	0.1088272
17	0x3db66e3c	0.08907744
18	0x3e7e1d57	0.2481588
19	0x3e06aa71	0.13150956
20	0xbe0701f5	-0.1318434
21	0xbe3800c0	-0.17969036
22	0xbde98f35	-0.11404268
23	0xbe132bb8	-0.14372146
24	0xbd8d5668	-0.06901246
25	0x3dcecac9	0.10097272
26	0x3e86c32e	0.26320785
27	0x3dcbda55	0.09953753
28	0xbec0f795	-0.3768889
29	0xbdb13f46	-0.086546466
30	0x3e3ae61e	0.18251845
31	0x3eb81d5c	0.359599
32	0x3df15265	0.11783294
33	0xbeb0a614	-0.34501708
34	0xbeb161a3	-0.34644803
35	0x3d97fd57	0.074213676
36	0x3ebc1c5a	0.3674038
37	0xbd56a062	-0.052399047
38	0xbd80b51a	-0.062845424
39	0xbe635b3b	-0.2220277
40	0x3eac31cf	0.3363175
41	0x3d9806ed	0.07423196
42	0x3e41b718	0.18917501
43	0xbd291750	-0.041282
44	0xbe1460e5	-0.14490087
45	0x3e642ea8	0.22283423
46	0x3d122e70	0.035688818
47	0x3e21c14b	0.15796392
48	0x3b9e99a0	0.004840091
49	0x3c7d6800	0.01546669
50	0xbea31d12	-0.31858116
51	0xbe376f82	-0.1791363
52	0x3dfa5a3e	0.122242436
53	0x3d7e53a5	0.06209149
54	0x3e9909ca	0.2989028
55	0x3d67ccb7	0.056591716
56	0xbc576f9e	-0.01314917
57	0x3ccb6577	0.024828656
58	0x3ea689ef	0.3252711
59	0x3e3080df	0.1723666
60	0xbdfd2119	-0.123598285
61	0x3e7027a7	0.23452626
62	0x3eaaba43	0.3334523
63	0x3eb4b35d	0.35293093
64	0xbda47210	-0.08029568
65	0x3d44d280	0.04805231
66	0x3dfd5e42	0.12371494
67	0x3e3000a5	0.17187746
68	0xbdd552ff	-0.10416221
69	0xbe4233aa	-0.18965021
70	0x3e2cf115	0.1688884
71	0x3cfccb59	0.030858682
72	0x3e0b500b	0.13604753
73	0xbca81897	-0.020519538
74	0xbc11291b	-0.008859898
75	0x3dbd0727	0.0922988
76	0x3e0966d7	0.13418137
77	0x3e1c0d02	0.15239337
78	0xbe11080a	-0.14163223
79	0x3e211480	0.15730476
80	0xbe197fed	-0.14990206
81	0xbe13dd9f	-0.1444001
82	0x3cfe21ee	0.031022038
83	0x3c10f821	0.008848221
84	0x3e40d30a	0.18830505
85	0xbe0d251d	-0.13783689
86	0xbe429d68	-0.19005358
87	0x3e15d1fb	0.14630882
88	0xbb6848ed	-0.0035443858
89	0x3e213ba8	0.15745413
90	0x3d30b41f	0.043140527
91	0xbe21f562	-0.15816262
92	0x3d175c65	0.03695335
93	0x3d3093f5	0.043109853
94	0xbe12df8e	-0.14343092
95	0xbdc97883	-0.09837439
96	0x3d8c5cb0	0.06853616
97	0x3ca8e4f2	0.020616982
98	0xbde9f522	-0.114237085
99	0xbdc2cd30	-0.09511793
100	0x3e8da275	0.27663007
101	0x3d766b3d	0.060160864
102	0x3e56f696	0.20992503
103	0x3de02f1d	0.10946486
104	0xbe465b4a	-0.19370762
105	0xbd1f3c98	-0.038876146
106	0x3edbed58	0.42954516
107	0x3e6d5ded	0.23180361
108	0x3e5e5d5c	0.21715301
109	0x3d596825	0.053077836
110	0x3e899193	0.26868877
111	0x3f05f7fe	0.5233153
112	0x3efa3dac	0.48875177
113	0xbca1a643	-0.0197326
114	0x3df2fd64	0.11864737
115	0x3e915089	0.28381756
116	0x3ec68b52	0.38778168
117	0x3e990c8e	0.2989239
118	0xbd40fd86	-0.04711678
119	0xbd2dda19	-0.042444322
120	0xbe15374b	-0.14571874
121	0x3d8c3140	0.06845331
122	0x3e7f8172	0.24951723
123	0xbda0de58	-0.07854909
124	0x3e56c9d2	0.20975426
125	0xbe10d3db	-0.14143316
126	0xbe7a1d9f	-0.24425362
127	0xbd717b0c	-0.058955237
128	0x3e7e0ce8	0.24809611
129	0x3ec1f31d	0.37880793
130	0xbdc68b24	-0.09694508
131	0x3dad1f3c	0.08453223
132	0x3e92345e	0.28555578
133	0x3eb5e18b	0.35523638
134	0x3e97f21d	0.29676905
135	0x3e54c601	0.20778657
136	0x3e3f526a	0.18683782
137	0x3e1320e9	0.14368023
138	0x3c057101	0.008144618
139	0xbde1ed21	-0.11031557
140	0xbd91989d	-0.07109187
141	0xbcc0be8c	-0.02352836
142	0xbdc416f5	-0.09574691
143	0x3e2271e5	0.1586376
144	0x3ddeeabf	0.10884618
145	0xbda84ca5	-0.08217744
146	0x3cce9456	0.025217216
147	0x3d750b2e	0.059825115
148	0x3e355bfb	0.17710869
149	0x3e3b5756	0.18295035
150	0xbdd8100a	-0.10549934
151	0x3e19f6e7	0.15035592
152	0xbd1771ef	-0.03697389
153	0x3c8b341d	0.016992623
154	0xbe334d12	-0.17509869
155	0xbe3934a6	-0.1808649
156	0xbe2a4ebe	-0.166316
157	0xbdbf6c46	-0.093468234
158	0x3e2dcc42	0.1697245
159	0xbd7c966d	-0.061666895
160	0xbe40ea5b	-0.188394
161	0x3d84e26b	0.06488498
162	0x3dbaff93	0.09130778
163	0x3e1e5a26	0.15464076
164	0xbded7079	-0.11593718
165	0x3d7a533a	0.061114527
166	0xbcf83cf2	-0.030302498
167	0x3c8d71a8	0.01726611
168	0xbdeed9c8	-0.11662632
169	0xbd928ba4	-0.071555406
170	0x3be26f5a	0.006910247
171	0x3e244c6b	0.16044776
172	0x3df946c3	0.121717
173	0x3e07a72d	0.13247366
174	0x3e8d2cbd	0.27573195
175	0x3df9688e	0.12178145
176	0x3d9a8f22	0.07546832
177	0xbc992c46	-0.018697869
178	0xbe33168f	-0.17489074
179	0x3dd78944	0.10524228
180	0xbe0ad9ac	-0.13559598
181	0xbdcf828d	-0.101323225
182	0xbe719cb5	-0.23594935
183	0xbe1ade82	-0.15123942
184	0xbe793b40	-0.24339008
185	0x3e145bab	0.14488094
186	0xbe461646	-0.19344434
187	0xbe418949	-0.18900026
188	0xbdbe2a59	-0.09285421
189	0xbe309f1f	-0.172482
190	0x3e18afbd	0.14910789
191	0x3d41b87f	0.04729509
192	0x3ca44767	0.020053579
193	0x3d9649df	0.073383085
194	0x3e61e87e	0.22061345
195	0xbc5a0e66	-0.013309097
196	0x3e9fbaef	0.31197307
197	0x3eba1c8d	0.36349908
198	0x3eb5b818	0.35492015
199	0xbc80c9bb	-0.015721193
200	0x3d8a009b	0.06738397
201	0xbdfe74bc	-0.12424609
202	0x3e6579cd	0.22409745
203	0x3c7c05ed	0.015382272
204	0x3e68a35d	0.22718568
205	0x3d425a5a	0.047449447
206	0x3d075172	0.033036657
207	0x3d9de0f3	0.07708921
208	0x3e398588	0.18117344
209	0x3e840029	0.25781372
210	0x3d795d92	0.06088025
211	0x3d9c1891	0.07621873
212	0xbe0698bc	-0.13144201
213	0x3e875aaa	0.2643636
214	0x3eac3ddb	0.33640942
215	0x3e00065e	0.12502429
216	0x3dad2c2f	0.08455693
217	0xbe3f4170	-0.18677306
218	0xbd37beb4	-0.044859603
219	0x3e8d0784	0.27544796
220	0xbe95bedb	-0.29247174
221	0x3d0e9845	0.034813184
222	0xbe8383fb	-0.2568663
223	0xbe34252b	-0.17592303
224	0x3e035e15	0.12828858
225	0xbdeeeb31	-0.11665953
226	0x3bb238b3	0.005438888
227	0x3e85af4a	0.26110297
228	0x3ea48794	0.32134688
229	0x3ead32c8	0.33827806
230	0xbd190a40	-0.03736329
231	0xbe11d9de	-0.14243266
232	0x3e97f111	0.29676107
233	0x3dd8a9d5	0.10579268
234	0x3d542e04	0.051801696
235	0x3be836b8	0.007086601
236	0xbe2eb54a	-0.17061344
237	0x3e1f09d4	0.15531093
238	0x3e43cf4d	0.19122048
239	0xbdccda20	-0.100025415
240	0xbe65eae2	-0.22452882
241	0xbd944162	-0.07239033
242	0x3d71b9df	0.05901515
243	0x3a870e0e	0.0010303871
244	0xbddc12ba	-0.10745759
245	0xbd89ae0a	-0.067226484
246	0xbe849828	-0.25897336
247	0xbe3ff6a9	-0.18746437
248	0xbe21875d	-0.15774293
249	0x3deb29b5	0.11482564

conv1.bias f4 [10]
0	0x3e468e15	0.19390137
1	0xbd8a30ba	-0.06747575
2	0x3d8a56ec	0.0675486
3	0x3dfaf02f	0.12252843
4	0x3e3b8c4e	0.1831524
5	0xbc238c6b	-0.009982209
6	0x3e0c0bcd	0.13676377
7	0x3e040807	0.12893687
8	0x3d3d3ff4	0.04620357
9	0x3d34c2d4	0.044131115

conv2.weight f4 [20, 10, 5, 5]
0	0x3d3609ab	0.044442814
1	0x3ce73759	0.028224634
2	0xbd9357bc	-0.071944684
3	0x3d2c7a1b	0.042108636
4	0x3ca55fd0	0.020187289
5	0xbd3ed35c	-0.046588287
6	0x3c251c9a	0.01007762
7	0xbdc1f329	-0.09470207
8	0x3cb0fc37	0.02160464
9	0xbd2c3605	-0.042043705
10	0x3bd3e18d	0.0064660967
11	0xbbdfb66d	-0.006827167
12	0xbcaaea36	-0.020863634
13	0x3ce893f1	0.028390856
14	0xbd028161	-0.031861667
15	0xbd64bca2	-0.055843957
16	0xbdadd49b	-0.08487817
17	0xbbf644f9	-0.0075155464
18	0xbc136889	-0.008997091
19	0x3c0b639f	0.008507638
20	0xbd1c8a5b	-0.038217884
21	0x3bf7ede5	0.007566201
22	0x3d8575a4	0.06516579
23	0x3d293415	0.041309435
24	0xbbf3dd71	-0.0074421694
25	0xbced8514	-0.02899412
26	0xbda1a62f	-0.07893025
27	0xbab00f7e	-0.0013432351
28	0xbc5f6272	-0.013634311
29	0x3d2ac9db	0.04169641
30	0xbb3e1586	-0.0029004528
31	0xbdb36535	-0.08759538
32	0xbca3c52f	-0.019991485
33	0x3c851b82	0.016248468
34	0x3c89138f	0.01673296
35	0xbd494249	-0.04913548
36	0xbda26f97	-0.0793144
37	0x3c97b79b	0.018520167
38	0x3cafe958	0.021473572
39	0xbb43ebe9	-0.0029895252
40	0xbc93c2ad	-0.018037165
41	0xbc6cf6de	-0.014463155
42	0x3db5ad2b	0.0887092
43	0x3d0c6325	0.03427424
44	0x3c653fe0	0.01399228
45	0xbcd8ebf7	-0.026479704
46	0x3c1d0cd1	0.009585575
47	0x3deda1a0	0.11603093
48	0x3bec6741	0.0072144573
49	0x3d79864a	0.060919084
50	0x3c252aed	0.010081035
51	0xbd127485	-0.035755653
52	0xbd8a128e	-0.0674182
53	0xbcb8b04d	-0.022545004
54	0x3d76529f	0.060137387
55	0xbda27dc0	-0.07934141
56	0xbd226c94	-0.03965433
57	0x3d87a2d9	0.066228576
58	0x3de5aff1	0.11215199
59	0x3d7e746b	0.062122744
60	0xbcdc4bdf	-0.026891647
61	0x3c9d024e	0.019166138
62	0x3da078e0	0.07835555
63	0x3cd3b328	0.025842264
64	0x3c6ba3f5	0.014382352
65	0xbd1ff735	-0.039054114
66	0x3c35f0e1	0.011104793
67	0x3d4bbc2b	0.049739998
68	0xbd87c3dc	-0.06629154
69	0xbd775d05	-0.060391445
70	0x3cdda948	0.027058259
71	0x3b8c6b34	0.0042852405
72	0xbca9f727	-0.020747734
73	0xbd9450bb	-0.072419606
74	0xbd068221	-0.032838944
75	0xbc8c6108	-0.017136112
76	0xbd3ffe82	-0.046873577
77	0xbd0f13c4	-0.03493096
78	0x3c94d96e	0.018170085
79	0x3abe5839	0.0014522142
80	0xbd4971e1	-0.04918087
81	0xbd833ddd	-0.06408284
82	0xbd51537f	-0.05110502
83	0x3d767284	0.060167804
84	0xbc6bce80	-0.014392495
85	0xbd00dbed	-0.031459738
86	0xbcdd2aa2	-0.026997868
87	0xbcfb9056	-0.030708473
88	0xbd9bbc8d	-0.076043226
89	0xbd511d92	-0.05105359
90	0x3d07518a	0.033036746
91	0x3ce124db	0.027483394
92	0xbcd7d2a4	-0.026345558
93	0xbd13efc4	-0.03611733
94	0x3cf218ce	0.029552843
95	0x3d2ab9ad	0.04168098
96	0x3d5c9b70	0.053859174
97	0x3cef9c2e	0.029249277
98	0x3d2704b4	0.04077597
99	0xbbec178d	-0.007204956
100	0xbcba6baa	-0.022756416
101	0xbdac508f	-0.08413803
102	0xba9e30a9	-0.0012068945
103	0x3a34e198	0.0006900071
104	0x3da349f1	0.079730876
105	0xbca7f4ca	-0.020502467
106	0xbe11780b	-0.14205949
107	0xbda034ed	-0.07822595
108	0x3d6b7094	0.05748041
109	0x3cd66821	0.0261727
110	0xbdbc5a6b	-0.09196933
111	0xbc47c538	-0.012193017
112	0x3d7f0bbb	0.062267046
113	0x3d352c93	0.044231962
114	0x3b1bbd89	0.0023764095
115	0xbd45e03e	-0.048309557
116	0xbc631329	-0.013859549
117	0x3e0886b8	0.13332641
118	0x3d51651b	0.051121812
119	0xbd1b7c22	-0.03796018
120	0xbd296978	-0.04136035
121	0xbdac2496	-0.08405416
122	0x3cd8e16d	0.026474679
123	0xbd2720ba	-0.040802695
124	0xbd2ab651	-0.041677777
125	0x3d24f67b	0.040274125
126	0x3c540ee6	0.012943005
127	0x3cd10dbf	0.02551925
128	0xbb21eb01	-0.0024706724
129	0xbd068cbf	-0.03284907
130	0xbce72804	-0.028217323
131	0x3cf25081	0.029579403
132	0x3d0cdbee	0.03438943
133	0x3c9240db	0.017853191
134	0x3d9b9abb	0.07597872
135	0xbc37c341	-0.011215986
136	0x3d978029	0.073974915
137	0x3d9bd2b9	0.076085515
138	0x3dc2a6f5	0.09504501
139	0x3b21a033	0.0024662137
140	0xbd1cec60	-0.038311362
141	0x3dbb63db	0.09149905
142	0x3d59fdc1	0.053220514
143	0xbd27220b	-0.04080395
144	0xbd756a8b	-0.05991606
145	0xbd800425	-0.062507905
146	0xbc0282d9	-0.007965767
147	0xbd8555b2	-0.06510486
148	0x3c9bfc8a	0.019041318
149	0xbd4f42f0	-0.050600946
150	0xbc63de25	-0.013907944
151	0x3c2c4dd8	0.010516606
152	0x3cb46cf5	0.022024611
153	0xbd0493f1	-0.03236765
154	0x3cd2baa7	0.025723768
155	0x3cc5ab6e	0.024129596
156	0xbd7edf60	-0.062224746
157	0x3d5af7bd	0.053458918
158	0xbd00fe07	-0.03149226
159	0xbce3b99c	-0.027798466
160	0xbd809967	-0.06279259
161	0x3d4a214c	0.04934816
162	0x3ca8a11f	0.020584641
163	0x3d5bb8da	0.053643085
164	0xbc048ace	-0.008089734
165	0x3c4f1407	0.012639052
166	0xbcd13f1c	-0.025542788
167	0xbd2f933a	-0.042865016
168	0x3be460a9	0.0069695306
169	0xbc8c946b	-0.017160615
170	0xbc4c9a80	-0.012488008
171	0xbd096a2a	-0.03354851
172	0x3b95dc5a	0.004573387
173	0x3cdec4ee	0.027193513
174	0x3c6404da	0.013917172
175	0xbd5a81ce	-0.053346448
176	0x3cf0c688	0.029391542
177	0xbc9e6b8a	-0.019338388
178	0x3c43cba8	0.011950411
179	0x3d3104ae	0.043217354
180	0xbd742572	-0.059606023
181	0x3d852fe7	0.06503277
182	0xbda05f35	-0.07830659
183	0xbabbfdae	-0.001434257
184	0xbc0de2c2	-0.00866002
185	0x3b949193	0.0045339554
186	0xbd4320e0	-0.047638774
187	0xbb8aacda	-0.0042320313
188	0xbd2bb113	-0.041916918
189	0xbd13ef07	-0.036116626
190	0xbbf24eca	-0.0073946463
191	0xbcb459db	-0.022015503
192	0x3cc3c72f	0.02389869
193	0x3ce7b2b3	0.028283453
194	0x3dc9b573	0.09849062
195	0x3c99cc8a	0.01877429
196	0xbd937fae	-0.07202087
197	0xbcfda2fe	-0.03096151
198	0x3d8bcdee	0.06826387
199	0xbc9d29ed	-0.01918503
200	0x3b14fd4d	0.0022733987
201	0xbd693dc8	-0.056943685
202	0x3d49bd76	0.04925295
203	0x3c597f2f	0.013274952
204	0xbcf2e98b	-0.029652378
205	0xbca24040	-0.019806027
206	0xbd988d98	-0.07448882
207	0xbd44395f	-0.047906276
208	0xbc06dab9	-0.0082308585
209	0xbd1c80d6	-0.038208805
210	0xbccaf431	-0.024774643
211	0xbc8de62f	-0.017321674
212	0x3d30a431	0.043125335
213	0x3d12277a	0.03568218
214	0x3cb938f4	0.022610165
215	0x3d4df46c	0.050281927
216	0xbd14e21a	-0.03634844
217	0x3d06463a	0.032781817
218	0x3bf21d0a	0.0073887156
219	0xbda78794	-0.08180156
220	0x3c322a49	0.010874339
221	0xbcf65ed2	-0.03007451
222	0x3cb7b33e	0.022424337
223	0x3c98bf21	0.018645825
224	0x3cfe389d	0.031032855
225	0x3b6360e6	0.0034695207
226	0xbd3dad1a	-0.04630766
227	0x3d7dfada	0.06200681
228	0x3c58559d	0.013204006
229	0x3b98eec7	0.0046671364
230	0x3c092566	0.008370733
231	0xbd991630	-0.07474935
232	0xbb45fbe1	-0.0030209946
233	0xbd97f367	-0.07419472
234	0x3bc16305	0.0059016966
235	0x3ba7f8b5	0.0051260837
236	0x3c838f81	0.016059639
237	0xbd041a83	-0.032251846
238	0xbd44e682	-0.048071392
239	0x3a40b2cd	0.0007350862
240	0xbd9738fc	-0.07383916
241	0xbd07a087	-0.033112075
242	0xbce0c986	-0.027439844
243	0xbcec6b47	-0.028859748
244	0xbd05ec55	-0.032696087
245	0xbd84d086	-0.06485085
246	0xbbeb5209	-0.00718141
247	0xbd0005cf	-0.03125554
248	0x3d8815d7	0.066447906
249	0xbc9f1d6c	-0.01942321
250	0xbd3b18ee	-0.04567807
251	0x3c5db973	0.013532984
252	0xbd69fb7c	-0.0571246
253	0x3cde790e	0.027157333
254	0x3cd39945	0.02582992
255	0xbd9ee8c1	-0.07759238

conv2.bias f4 [20]
0	0x3c84e26f	0.016221253
1	0xbc5f0140	-0.013611138
2	0x3d441734	0.04787369
3	0xbcab85d7	-0.020937843
4	0xbc61ca52	-0.013781147
5	0xbcf1b1e3	-0.029503768
6	0xbd435619	-0.04768953
7	0xbc206c5a	-0.009791458
8	0xbd35afae	-0.044356994
9	0xbcc5394d	-0.024075175
10	0x3bbd29e6	0.005772817
11	0xbd5f7b70	-0.05456108
12	0xbd4dd3ad	-0.050250698
13	0x3d8f286e	0.06990133
14	0xbd32b259	-0.043627117
15	0xbd9b87d9	-0.0759427
16	0xbc6d5b6e	-0.014487131
17	0xbd88536b	-0.06656536
18	0xbd7b3279	-0.06132743
19	0x3c301bde	0.010748832

fc1.weight f4 [50, 320]
0	0xbd16c11f	-0.03680527
1	0xbca8ffd2	-0.020629797
2	0xbc967319	-0.01836543
3	0xbcdf720d	-0.027276063
4	0x3d84522c	0.064609855
5	0xbd0db1f5	-0.03459354
6	0x3be13139	0.006872323
7	0x3cab0803	0.020877844
8	0xbcd1619b	-0.025559237
9	0x3c1cb57d	0.009564755
10	0x3d2f905c	0.04286228
11	0x3d170c9f	0.03687727
12	0x3d0853f3	0.033283185
13	0xbaff1b82	-0.0019463154
14	0x3baf46ef	0.005349032
15	0x3ba7d0a7	0.005121309
16	0xbd4688fa	-0.048470475
17	0x3b0ce944	0.0021501342
18	0xbccd522b	-0.025063595
19	0x3d0b67fd	0.034034718
20	0x3d29581e	0.0413438
21	0xbc8281a1	-0.015930953
22	0x3cf47f1b	0.029845765
23	0xbac96f9c	-0.0015368345
24	0x3cfccfd8	0.030860826
25	0xbd56d01a	-0.052444555
26	0x3d267bf4	0.040645555
27	0x3cdd190d	0.026989484
28	0xbc250ce9	-0.010073879
29	0xbd88a24c	-0.06671581
30	0x3c59d562	0.013295503
31	0x3c5ec835	0.013597538
32	0xbd0bf56d	-0.034169603
33	0xbb7258a3	-0.00369791
34	0xbd68e158	-0.05685553
35	0xbd96a470	-0.07355583
36	0x3bfa8201	0.007644892
37	0x3ce5f6f9	0.028071867
38	0x3d3cd99c	0.046105966
39	0x3d8c9031	0.0686344
40	0x3d7933ab	0.06084029
41	0xbc05acca	-0.008158872
42	0xbd06890b	-0.032845538
43	0xbcba411d	-0.022736127
44	0xbce46215	-0.0278788
45	0xbd2d9523	-0.042378556
46	0x3d197630	0.037466228
47	0xbd468928	-0.048470646
48	0x3c0cc62b	0.008592169
49	0x3d6686d1	0.056280915
50	0x3d5aae59	0.053388927
51	0x3d19880b	0.037483256
52	0xbd04e1c4	-0.03244187
53	0xbba36fc5	-0.004987689
54	0xbd73380e	-0.05937963
55	0x3b7d243e	0.0038626338
56	0xbcb0234c	-0.021501206
57	0xbca46f6a	-0.020072658
58	0xbd89626e	-0.06708227
59	0xbd72c4aa	-0.059269585
60	0xbd20805b	-0.03918491
61	0xbc560f1a	-0.013065124
62	0x3d2b4f87	0.04182389
63	0xbd1fe07c	-0.039032444
64	0x3d2b510e	0.041825347
65	0x3cb0e03b	0.021591296
66	0x3c583184	0.013195399
67	0xbc173b1e	-0.009230403
68	0xbc0b6040	-0.0085068345
69	0xbc88978e	-0.01667383
70	0xbd39631d	-0.045260537
71	0xbc2ed732	-0.010671424
72	0xbcb6d11e	-0.022316512
73	0xbcbf8b6d	-0.023381913
74	0x3bfeb17e	0.0077726236
75	0x3c9595fa	0.018259991
76	0x3aca2abb	0.0015424112
77	0x3d07d63f	0.033163305
78	0xbb973bdb	-0.0046152896
79	0xbcc84c5c	-0.024450473
80	0xbd1eec37	-0.03879949
81	0x3d136604	0.03598596
82	0xbcf64aae	-0.030064907
83	0xbdb54270	-0.088505626
84	0xbc862fab	-0.016380152
85	0xbc364983	-0.011125925
86	0xbd38ea10	-0.045145094
87	0x3c39aabe	0.011332212
88	0xbc629e2d	-0.013831657
89	0xbc56947f	-0.013096928
90	0xbc335f15	-0.010947962
91	0xbc806d29	-0.015677052
92	0xba09c11d	-0.00052549114
93	0x3d69983b	0.057029944
94	0x3d8ac2d8	0.06775445
95	0xbcd5e629	-0.026110725
96	0x3d2c8b02	0.042124756
97	0x3d20468b	0.039129775
98	0xbc437091	-0.011928693
99	0xbb659262	-0.0035029878
100	0x3d4a0b3e	0.049327128
101	0xba24ec78	-0.000629134
102	0xbc8d44e2	-0.01724476
103	0x3d8063c2	0.06269027
104	0x3bd9a32f	0.0066417675
105	0xbceb0636	-0.028689485
106	0x3d56382a	0.052299656
107	0x3d6a4709	0.05719665
108	0x3d6b55c8	0.057454854
109	0x3c026b51	0.007960157
110	0x3b6291b6	0.0034571714
111	0x3d24f594	0.040273264
112	0x3c05a5e3	0.008157226
113	0xbc800ae3	-0.015630191
114	0x3d9c5e48	0.0763517
115	0x3a30ff77	0.00067519344
116	0x3cf95e4b	0.03044047
117	0xbaf2269b	-0.001847464
118	0xbc98144c	-0.018564366
119	0x3d56242a	0.052280582
120	0x3d434ef4	0.047682717
121	0x3cbb7248	0.022881642
122	0xbd65ef5a	-0.056136467
123	0x3d14c2b3	0.036318492
124	0xbcd5bf88	-0.026092306
125	0xbd17643b	-0.03696082
126	0xbced9e22	-0.029006068
127	0xbc37ba6c	-0.01121388
128	0xbd820bb1	-0.06349886
129	0x3a01db0f	0.0004953602
130	0x3d8f7a1f	0.070057146
131	0x3c464931	0.012102411
132	0x3c802a7d	0.01564526
133	0x3d2c7e8c	0.042112872
134	0x3d3cdf19	0.0461112
135	0x3d6fbbd7	0.058528747
136	0x3d7c3ce6	0.061581515
137	0xbc625862	-0.013815017
138	0xbc6ebd3e	-0.014571486
139	0x3d25f41f	0.040516015
140	0xbc82112f	-0.015877334
141	0x3b730496	0.003708159
142	0xbd6fe868	-0.05857125
143	0xbd4ca830	-0.049965084
144	0xbd0cecf2	-0.034405656
145	0xbd1de248	-0.038545877
146	0xbd8346b9	-0.06409974
147	0x3ba0d536	0.004908229
148	0x3d4a00a1	0.049317006
149	0xbc152bcd	-0.009104681
150	0xbc212f3d	-0.009837923
151	0xbd1015a1	-0.035176877
152	0x3c8ba115	0.017044583
153	0xbc30219a	-0.010750199
154	0xbc5d59cc	-0.013510179
155	0x3d50925c	0.05092083
156	0x3d370813	0.044685435
157	0x3d0c45c4	0.03424622
158	0x3d361406	0.04445269
159	0x3cd389b7	0.025822503
160	0x3c8f54dc	0.017496519
161	0xbbb8a760	-0.005635187
162	0xbd678e44	-0.05653216
163	0x3c72a244	0.014809195
164	0x3a00ae60	0.00049087964
165	0xbc440065	-0.011962985
166	0x3d419596	0.047261797
167	0xbc8ac45b	-0.016939333
168	0xbd6c0e45	-0.057630796
169	0x3cb2c651	0.02182308
170	0xbc02f8df	-0.007993906
171	0x3d23b608	0.03996852
172	0x3d88303a	0.066498235
173	0x3caf50c6	0.02140082
174	0x3d0e550e	0.034749083
175	0xbc5341f1	-0.01289414
176	0xbcb539d0	-0.022122294
177	0xbdb6a989	-0.08919055
178	0xbda05316	-0.078283474
179	0xbdb33d28	-0.08751899
180	0x3cbc4aba	0.022984851
181	0x3d8f476d	0.06996045
182	0xba66738c	-0.00087910215
183	0xbd85fad3	-0.065419815
184	0x3c475fe8	0.012168862
185	0xbd13a523	-0.03604616
186	0x3c7c399a	0.015394593
187	0x3d0b262d	0.033971954
188	0x3c8398cf	0.016064076
189	0x3d298035	0.041382033
190	0x3cbba525	0.022905895
191	0x3d68241a	0.056675054
192	0xbcec88f2	-0.028873894
193	0x3c18cb40	0.009325802
194	0xbcaa8000	-0.020812988
195	0x3b3f3b1d	0.0029179521
196	0x3d0897b2	0.033347793
197	0x3d76204f	0.060089406
198	0x3cf041fc	0.029328339
199	0x3cc3ef2f	0.023917763
200	0x3d0332d8	0.03203091
201	0xbd793e0a	-0.06085018
202	0xbc9d588f	-0.019207267
203	0xbbe4c69a	-0.006981683
204	0x3c264fcd	0.010150862
205	0x3ba417ee	0.0050077355
206	0x3cba1913	0.022717034
207	0xbcdf6e4a	-0.02727427
208	0xbd19b310	-0.037524283
209	0x3d690bde	0.056896083
210	0x3d2b40c9	0.04180983
211	0x3cf8cc5a	0.03037088
212	0x3cbd7767	0.023128225
213	0xbd2e1f1b	-0.042510133
214	0x3c97c489	0.018526332
215	0xbc008ff3	-0.00784682
216	0xbd9ef41b	-0.07761403
217	0x3c30a319	0.010781073
218	0x3c780816	0.015138647
219	0xbc60352c	-0.013684552
220	0xbda3183f	-0.07963609
221	0x3bb2fa49	0.005461965
222	0x3c527dde	0.012847392
223	0xbced114c	-0.028938912
224	0x3ccfab2a	0.025350172
225	0xbc01cc4c	-0.007922243
226	0xbdc0df79	-0.09417624
227	0xbd9c0211	-0.07617582
228	0x3c122464	0.008919809
229	0xbd24a2f4	-0.040194467
230	0xbd61732e	-0.055041485
231	0x3bbc53b9	0.005747285
232	0xbcccf9f6	-0.025021534
233	0x3d5998f9	0.0531244
234	0x3c272905	0.010202651
235	0xbc0732ea	-0.008251885
236	0x3c606fc0	0.013698518
237	0x3c88530e	0.016641166
238	0x3c0cebbf	0.008601128
239	0x3d9396fa	0.07206531
240	0x3c950219	0.018189477
241	0x3cce6341	0.025193812
242	0xbd9e5eae	-0.077329025
243	0xbd9cb68a	-0.07652004
244	0xbce2ebd0	-0.027700335
245	0x3b651f9b	0.0034961465
246	0x3bd3e116	0.0064660413
247	0x3dafe75c	0.0858905
248	0x3d146076	0.036224805
249	0x3cfe242e	0.031023111
250	0x3d448173	0.047975015
251	0xbc9b9bb0	-0.018995136
252	0x3c69cfe5	0.014270757
253	0xbd2c6011	-0.042083804
254	0xbc4cb990	-0.012495413
255	0xbd8842fa	-0.066534

fc1.bias f4 [50]
0	0x3d5b4bb4	0.053538993
1	0x3d159362	0.03651751
2	0xba952057	-0.0011377436
3	0xbc2c5233	-0.010517645
4	0x3c83320b	0.016015073
5	0xbc5a0fb9	-0.013309413
6	0xb9dce0ea	-0.00042129244
7	0xbd142556	-0.03616842
8	0x3cbc26e7	0.022967769
9	0x3c2e61f5	0.010643472
10	0x3cb8c7bd	0.02255618
11	0x3d705b78	0.05868098
12	0xbcabff73	-0.020995831
13	0xba5db2b9	-0.00084571127
14	0xbb96f36a	-0.004606654
15	0xbd2ce266	-0.042208098
16	0x3d65c20d	0.056093264
17	0x3ccb3d00	0.02480936
18	0x3d8a54a4	0.06754425
19	0xbd08443a	-0.03326819
20	0x3ce9d09c	0.028541856
21	0x3ca89c27	0.020582272
22	0xbd05b53e	-0.03264355
23	0x3d15d919	0.036583994
24	0x3d34d79a	0.044150926
25	0xb89c93cc	-7.466189e-05
26	0x3d98ceb3	0.074613
27	0xbcbe40ae	-0.023224201
28	0xbd144dc5	-0.03620698
29	0xbd0f2a89	-0.034952674
30	0xbcf692d4	-0.03009931
31	0x3d43a8fb	0.047768574
32	0x3be7c8cc	0.0070734974
33	0xbd13e94e	-0.03611117
34	0xbd2202c3	-0.039553415
35	0x3da92d6f	0.08260619
36	0x3c26f253	0.0101896105
37	0xbd748a7f	-0.059702393
38	0x3d0237b3	0.0317914
39	0xbcfc45d1	-0.03079501
40	0x3c92c6a6	0.017916989
41	0x3d9a514d	0.07535038
42	0x3d16b49a	0.03679333
43	0xbd0ab9a0	-0.033868432
44	0xbc96c5e4	-0.018404908
45	0x3ca1bbc7	0.01974286
46	0xbd297ece	-0.041380696
47	0xbd46dafc	-0.048548684
48	0x3d5a5bb3	0.053310107
49	0x3d2865b3	0.041112613

fc2.weight f4 [10, 50]
0	0x3dd52f1d	0.10409377
1	0xbdb5a8f6	-0.08870117
2	0x3e3e5b32	0.18589476
3	0x3dba773d	0.09104774
4	0xbdb1ba95	-0.08678166
5	0xbd3b5516	-0.04573544
6	0xbe412a28	-0.18863738
7	0xbde2b542	-0.110697284
8	0xbda38902	-0.079851165
9	0xbdf35188	-0.11880785
10	0xbe64f4bc	-0.22358984
11	0xbe09384c	-0.13400382
12	0xbdbe62b1	-0.09296168
13	0x3e0ad7b6	0.1355885
14	0x3e550067	0.20800935
15	0x3e0adaee	0.13560078
16	0x3d9e27b8	0.077224195
17	0x3e4b6edb	0.19866507
18	0x3d9cb8a8	0.07652408
19	0xbd4456a1	-0.04793418
20	0xbd97df3b	-0.07415625
21	0xbdcbe3ed	-0.09955583
22	0xbdb1420f	-0.08655178
23	0xbe4d8d8f	-0.20073532
24	0xbde022de	-0.109441504
25	0xbe4dcfbb	-0.20098774
26	0xbe59a283	-0.212534
27	0xbe63540d	-0.22200032
28	0x3d3c649a	0.04599438
29	0x3e888b7e	0.26668924
30	0xbe3e2e66	-0.18572387
31	0xbd59e826	-0.05319991
32	0x3e394f12	0.18096569
33	0x3dea968d	0.114544965
34	0xbe04784f	-0.12936519
35	0x3e33ad66	0.17546615
36	0x3e2c881e	0.168488
37	0x3c98405e	0.01858538
38	0xbd49fbd4	-0.049312428
39	0xbe1b88a4	-0.15188843
40	0xbdedf3bc	-0.11618754
41	0xbe5747fe	-0.21023557
42	0x3db96d01	0.09053994
43	0xbdc49144	-0.0959802
44	0xbbf48dd6	-0.007463197
45	0x3e62034d	0.22071572
46	0xbdc41922	-0.09575106
47	0xbd82599f	-0.0636475
48	0x3e04c904	0.12967306
49	0x3d4214e9	0.047383223
50	0xbd62fdc6	-0.0554178
51	0x3e170ef8	0.14751804
52	0xbe375ab7	-0.17905699
53	0x3dad8bac	0.08473906
54	0x3e2c2ca1	0.168139
55	0x3e2381b2	0.15967444
56	0xbe5bbee7	-0.21459542
57	0x3db3505c	0.08755562
58	0xbca44e12	-0.020056758
59	0xbe183669	-0.14864506
60	0x3e08bef5	0.13354094
61	0x3e43b5d5	0.19112332
62	0xbddb82f4	-0.10718337
63	0xbe0bf963	-0.13669352
64	0x3bc7c9b4	0.006097043
65	0xbe5f8856	-0.21829352
66	0x3df6aad6	0.12044303
67	0xbce3629b	-0.02775698
68	0xbe56d601	-0.20980074
69	0x3cb79f8b	0.022414943
70	0xbe1cbc73	-0.15306263
71	0x3d279e6e	0.040922575
72	0x3e06fd7b	0.13182633
73	0x3e30e2dc	0.1727404
74	0x3e03d3a4	0.12873703
75	0xbe8a9d72	-0.27073246
76	0xbe8044b3	-0.25052413
77	0x3e211af6	0.15732941
78	0x3e0e3b95	0.13889916
79	0x3d886a11	0.066608556
80	0x3e2b9c13	0.16758756
81	0xbdebf470	-0.11521232
82	0xbe4dc525	-0.20094736
83	0xbe358c30	-0.17729259
84	0x3df4a526	0.11945562
85	0x3d06d6a4	0.03291954
86	0xbdde228f	-0.10846435
87	0xbd5ed7bf	-0.05440497
88	0x3e230a7c	0.15921968
89	0x3e0969e2	0.13419297
90	0xbd8cbe37	-0.06872218
91	0x3dcbcca0	0.099511385
92	0xbdade00c	-0.08489999
93	0xbe5932ac	-0.21210736
94	0x3dfb3715	0.122663654
95	0xbe07fe08	-0.13280499
96	0xbe0f6e46	-0.1400691
97	0x3e3a8ba2	0.18217328
98	0xbe706fd5	-0.2348016
99	0x3d7f6e87	0.062361266
100	0xbd00cff9	-0.03144834
101	0xbcfecc12	-0.031103168
102	0xbd877b96	-0.06615369
103	0xbd85da57	-0.06535786
104	0xbdd18038	-0.10229534
105	0x3e0ff6bc	0.14058965
106	0x3dc986d2	0.09840168
107	0x3b29afe4	0.0025892192
108	0x3e33b462	0.1754928
109	0x3d1a4624	0.037664548
110	0xbcd9afa2	-0.026573006
111	0x3e6ef3d5	0.23335202
112	0x3d6c2ea3	0.057661664
113	0x3e205eb4	0.15661126
114	0x3e3ae9f8	0.18253314
115	0x3ddd9125	0.108187
116	0xbd70e820	-0.05881512
117	0xbd294049	-0.041321073
118	0xbdf78e12	-0.12087645
119	0xbe23300d	-0.15936299
120	0xbd6f59ee	-0.058435373
121	0x3dbf15fc	0.09330365
122	0xbdf31556	-0.11869304
123	0xbe160adf	-0.14652584
124	0xbdd613a7	-0.10452967
125	0xbd9adf63	-0.07562139
126	0xbe227f61	-0.15868904
127	0x3d8c4264	0.068486005
128	0xbe4e5256	-0.20148596
129	0xbb7040e4	-0.0036659772
130	0xbde8c2fe	-0.11365317
131	0xbdd410ec	-0.1035479
132	0x3d5c784b	0.053825658
133	0xbe0790f0	-0.13238883
134	0x3df0d2fc	0.11758992
135	0x3e428038	0.18994224
136	0xbda16950	-0.07881415
137	0xbe0209b0	-0.12699008
138	0x3e1c7ab1	0.15281178
139	0x3d652c5f	0.05595052
140	0x3e2fe316	0.1717647
141	0x3e3a0473	0.1816576
142	0xbda6b522	-0.08140017
143	0xbcc620b8	-0.024185523
144	0x3dbb028a	0.09131344
145	0x3e2e9db7	0.17052351
146	0x3ca6a25f	0.020341096
147	0x3e234521	0.1594434
148	0xbe01160d	-0.12606068
149	0x3e04f7f7	0.12985216
150	0xbcc1dd7a	-0.023665179
151	0x3e336749	0.17519869
152	0x3e01f9f6	0.12693009
153	0xbe063ee8	-0.13109934
154	0xbc3ec672	-0.011643993
155	0xbe334e29	-0.17510284
156	0x3dd7ed3e	0.10543297
157	0x3d9925fa	0.074779466
158	0x3ba7f218	0.0051252954
159	0x3b069ec3	0.0020541407
160	0xbd93eecd	-0.07223282
161	0x3e728d69	0.23686756
162	0xbe14b88d	-0.14523526
163	0x3c2ce5fc	0.010552879
164	0x3d60bb41	0.05486608
165	0xbd43abc8	-0.047771245
166	0xbdde1ca0	-0.108453035
167	0x3ce6d063	0.028175538
168	0xbe0416d2	-0.1289933
169	0x3e143f30	0.14477229
170	0x3e6cab1d	0.2311215
171	0x3e0c22ec	0.13685197
172	0x3d789f8c	0.06069903
173	0xbdf5b02f	-0.11996495
174	0xbe0934d8	-0.13399065
175	0xbe04a98c	-0.12955302
176	0x3e1398f3	0.14413814
177	0xbda7ac21	-0.08187128
178	0x3e4dd302	0.20100024
179	0xbdfe5014	-0.124176174
180	0xbe805792	-0.2506681
181	0x3e44f4ce	0.1923401
182	0xbde45eec	-0.111509174
183	0x3deb1165	0.11477927
184	0x3dce8bd9	0.100852676
185	0x3d7ff003	0.062484752
186	0x3dbfbf0b	0.093626104
187	0x3ceed19c	0.029152684
188	0xbe4ed495	-0.20198281
189	0xbc4fe33c	-0.012688454
190	0x3dfd62f1	0.12372387
191	0x3e29b7b6	0.16573986
192	0xbe1fd86c	-0.15609902
193	0x3da96a22	0.08272196
194	0x3de12459	0.10993261
195	0xbc4e0aa7	-0.012575782
196	0xbdb9b5c7	-0.090678744
197	0xbd8cbd76	-0.06872074
198	0xbdd9b0ed	-0.10629449
199	0x3e090d17	0.133839
200	0x3cde9264	0.027169414
201	0xbd3316af	-0.043722805
202	0xbdb7eb2e	-0.08980404
203	0x3df114cd	0.117715456
204	0x3c8e44c0	0.017366767
205	0x3e2b02bb	0.1670026
206	0x3e208894	0.156771
207	0xbdea46df	-0.11439299
208	0xbdc9ce1c	-0.09853765
209	0xbdef5339	-0.11685795
210	0x3e667cb5	0.2250851
211	0xbb144766	-0.0022625565
212	0x3e66c1cf	0.2253487
213	0xbe427910	-0.18991494
214	0xbd45ee67	-0.04832306
215	0x3ddaab3a	0.1067719
216	0xbe06a408	-0.1314851
217	0xbe1abc87	-0.1511098
218	0xbcd832f1	-0.026391478
219	0xbe07e11e	-0.13269469
220	0xbe0c8f15	-0.13726456
221	0xbe15b7d3	-0.14620905
222	0x3e4a6e32	0.19768599
223	0x3e4f2ba0	0.20231485
224	0x3e05100d	0.12994404
225	0x3e3cefde	0.18450877
226	0x3d868df2	0.06570043
227	0xbd29ee03	-0.04148675
228	0xbc8515e3	-0.016245788
229	0xbd37cfb9	-0.044875834
230	0x3dee4764	0.116347104
231	0x3e3871b7	0.18012129
232	0xbe2f2268	-0.17102969
233	0xbe76724f	-0.24067043
234	0xbdf765c7	-0.12079959
235	0xbde0eb69	-0.10982401
236	0xbd872cb7	-0.066003256
237	0x3e83b1f6	0.2572171
238	0x3dd5cd07	0.104394965
239	0xbd802b04	-0.062582046
240	0xbe4c1af8	-0.19932163
241	0xbde7de5a	-0.11321707
242	0x3dd38fea	0.10330184
243	0x3b5895c3	0.003304825
244	0xbe222a16	-0.15836367
245	0x3b75b1b3	0.003748995
246	0xbdc5b26c	-0.09653172
247	0xbe215e5c	-0.15758651
248	0x3e0daf7f	0.13836478
249	0xbe21cf75	-0.15801795
250	0x3dc15582	0.094401374
251	0xbd666ab6	-0.05625411
252	0x3d031f9a	0.03201256
253	0xbe681e45	-0.22667797
254	0xbaebe687	-0.001799778
255	0xbda38f9b	-0.07986375

fc2.bias f4 [10]
0	0xbdbaf144	-0.09128049
1	0x3d528a0b	0.05140118
2	0xbd183d90	-0.037168086
3	0xbe03ee1d	-0.12883802
4	0x3ae63937	0.0017564659
5	0x3db30134	0.08740464
6	0xbdd62671	-0.10456551
7	0xbdd26dba	-0.10274835
8	0x3d6c58d5	0.057701904
9	0xbd035b81	-0.032069687

momentum_buffer f4 [10, 1, 5, 5]
0	0x3a109aae	0.0005516213
1	0xbb27ed02	-0.0025623445
2	0x3b6f2541	0.003649071
3	0x3b42882b	0.0029683213
4	0x3b5d46fa	0.003376423
5	0xbbf09ae8	-0.007342685
6	0xbbfb3431	-0.007666134
7	0x3b9d1247	0.0047934386
8	0x3bc8d796	0.0061292155
9	0x3b23bc31	0.0024983997
10	0xbc873b3c	-0.016507737
11	0xbc37fba5	-0.01122943
12	0x3b68cc80	0.0035522282
13	0x3bebf7c2	0.007201166
14	0x3bd5e640	0.006527692
15	0xbc1584c4	-0.009125892
16	0xbbe2b8e0	-0.0069190115
17	0xbbdae27e	-0.006679832
18	0xb990cf60	-0.00027620327
19	0x3a377764	0.00069986866
20	0x3bdb8136	0.0066987528
21	0x3b4c9ace	0.00312202
22	0xba135cb3	-0.0005621418
23	0x39da9a20	0.00041695032
24	0xbb8682aa	-0.004104932
25	0xbc20f8a0	-0.009824902
26	0xbc8289a0	-0.015934765
27	0xbc9e4496	-0.019319814
28	0xbc8b4bf4	-0.01700399
29	0xbc575c48	-0.01314456
30	0xbc98d3a2	-0.018655602
31	0xbc9e8cb7	-0.019354207
32	0xbc8524f4	-0.016252972
33	0xbb48907c	-0.0030603698
34	0x3b2c7451	0.0026314447
35	0xbcba8526	-0.022768568
36	0xbc71e8e0	-0.014764994
37	0xbc1f6e37	-0.009730867
38	0x3b5beae4	0.0033556754
39	0x3c05ca35	0.008165886
40	0xbc939ba8	-0.018018559
41	0xbc485768	-0.0122278705
42	0xbc64746e	-0.013943775
43	0x3afbd21c	0.0019212398
44	0x3b679f21	0.003534265
45	0xbb7515f8	-0.0037397128
46	0x3ba5442e	0.005043528
47	0xbc23b58b	-0.009992014
48	0x3a265638	0.0006345245
49	0x3b986538	0.004650738
50	0x3acb76dc	0.0015523094
51	0x3b58fdd2	0.0033110273
52	0xbbbc34d8	-0.005743604
53	0xbbee1174	-0.007265264
54	0xbc026d9e	-0.007960705
55	0x3a697a88	0.0008906503
56	0xbb1306d8	-0.00224345
57	0xbc2a781e	-0.010404615
58	0xbc30ea8c	-0.010798108
59	0xbbb89611	-0.0056331237
60	0xbbba02a8	-0.005676586
61	0xbc575f7f	-0.013145327
62	0xbca850d2	-0.02054635
63	0xbc898038	-0.016784772
64	0xbbc0ea40	-0.0058873
65	0xbc910eb8	-0.017707214
66	0xbca6449a	-0.020296384
67	0xbcba7644	-0.022761472
68	0xbca7f54e	-0.020502713
69	0xbbbf0c9e	-0.0058303615
70	0xbc967954	-0.0183684
71	0xbcb412a1	-0.02198154
72	0xbca44d15	-0.020056287
73	0xbc45a89e	-0.012064127
74	0x3a610970	0.0008584475
75	0xbad3a718	-0.001614782
76	0xbbb022fa	-0.0053752633
77	0xbc1ea86e	-0.009683711
78	0xbc0f86b8	-0.008760147
79	0xbc102788	-0.0087984875
80	0x3ad9bac2	0.0016611444
81	0xb9dae7e9	-0.00041752987
82	0xbba67be6	-0.005080688
83	0xbbb98daa	-0.0056626396
84	0xbc0b53f9	-0.008503907
85	0x3acddd24	0.0015706164
86	0xbb06857c	-0.002052634
87	0xbbf82c4a	-0.007573639
88	0xbbfa41f0	-0.007637255
89	0xbc4ba95f	-0.012430518
90	0x3a0db8ff	0.000540629
91	0xbb975bf5	-0.0046191164
92	0xbc0c575d	-0.008565751
93	0xbc1cd5b2	-0.009572433
94	0xbbb3de38	-0.005489137
95	0xba81cb95	-0.0009902591
96	0xbae2d810	-0.0017306823
97	0xbc13c836	-0.009019902
98	0xbc5b7aee	-0.013396008
99	0x39bd4b78	0.00036105118
100	0xbc97426b	-0.018464288
101	0xbcb9dd87	-0.02268864
102	0xba82cab8	-0.0009978628
103	0x3b87bb7a	0.004142222
104	0x3aa50ad4	0.0012591728
105	0xbcac0838	-0.021000013
106	0xbcea9cca	-0.028639216
107	0xbc6caa32	-0.014444875
108	0xbb7ba0fe	-0.003839552
109	0x3ad81ab4	0.001648745
110	0xbcc87cc9	-0.024473565
111	0xbcd4a360	-0.02595681
112	0xbc6ce756	-0.014459452
113	0x36acf800	5.1548705e-06
114	0x3b1226e6	0.0022301017
115	0xbc9e512a	-0.019325811
116	0xbbf38518	-0.0074316375
117	0xbc44ab72	-0.012003766
118	0x3c02d5a1	0.007985503
119	0x3b4c866b	0.003120805
120	0x3aa5b2c0	0.0012641773
121	0x3c50ad28	0.012736596
122	0x3b57ae74	0.0032910379
123	0x3ba34282	0.0049822936
124	0x3aa869de	0.0012848934
125	0x3c0fe7f6	0.008783331
126	0x3b31844c	0.0027086912
127	0xbb04cb67	-0.0020262839
128	0xbb418bb2	-0.0029532728
129	0xbbe0ea80	-0.006863892
130	0x3c22d51d	0.0099385055
131	0x3b01d034	0.0019807937
132	0xbc1b4fff	-0.009479522
133	0xbbae4542	-0.005318315
134	0xbc5ef9e5	-0.013609384
135	0x3c07ec11	0.008296029
136	0xbab82c78	-0.0014051339
137	0xbc174786	-0.009233361
138	0xb9c12d28	-0.00036845473
139	0xbba86c08	-0.0051398315
140	0xbb017bfc	-0.0019757738
141	0xbc2ac716	-0.010423442
142	0xbbc5945e	-0.0060296496
143	0x3b11089c	0.0022130376
144	0xbc6d4938	-0.014482789
145	0xbb432988	-0.0029779393
146	0xbc178ed6	-0.009250363
147	0xbbba40a8	-0.005683977
148	0xba0b3530	-0.0005310355
149	0xbc604678	-0.013688676
150	0xb9c093d0	-0.00036731223
151	0xbb58a9e0	-0.0033060238
152	0xbb209eec	-0.0024508787
153	0xbb7bbfd1	-0.0038413892
154	0x3a87414c	0.0010319143
155	0x3a61e22a	0.000861677
156	0x3ab0e46a	0.0013495807
157	0x3a3e8ddd	0.0007269064
158	0x3a1861a0	0.0005812887
159	0x3b47fdbe	0.0030516232
160	0x3b6597be	0.0035033072
161	0xb9ba3520	-0.00035516266
162	0xba99eaca	-0.0011742946
163	0x3b828a76	0.003983791
164	0x3ba44fc4	0.0050143916
165	0x3b4e8e70	0.0031518005
166	0xbb3e19a3	-0.002900698
167	0xbbc198bd	-0.0059081004
168	0xbbbef506	-0.005827549
169	0xbb0eda04	-0.0021797428
170	0x3b5fba4e	0.0034138146
171	0xbbb671da	-0.0055677714
172	0xbc2c25f3	-0.010507095
173	0xbc44ac6a	-0.012003997
174	0xbc05c6f8	-0.008165114
175	0xbbdf8c96	-0.006822179
176	0xbbf6f29b	-0.007536245
177	0xbc09f5ec	-0.008420449
178	0xbbf46c88	-0.007459227
179	0xbb3b78e4	-0.0028605992
180	0xbc02dc17	-0.007987044
181	0xbab385f8	-0.0013696542
182	0x3a8d68ba	0.0010788657
183	0x3a9e8b3c	0.0012095938
184	0x39b2a7e0	0.00034075882
185	0xbbef9c05	-0.0073123
186	0xba642b30	-0.0008703945
187	0x3c07e11c	0.008293416
188	0x3c601161	0.013676018
189	0x3bdbfe0e	0.0067136353
190	0xbc1b714c	-0.009487461
191	0x3b05963d	0.0020383738
192	0x3c722e8e	0.014781607
193	0x3c732c34	0.014842082
194	0x3bc352ec	0.005960813
195	0xbb1b5529	-0.0023701882
196	0x3c054d73	0.008136141
197	0x3cafea6b	0.021474084
198	0x3ca30351	0.019899042
199	0x3c139199	0.009006881
200	0x3ad27883	0.0016057644
201	0x3c186312	0.009300964
202	0x3c42aa1e	0.011881379
203	0x3c708dca	0.014682243
204	0x3ca229e4	0.019795366
205	0x3c502b60	0.012705654
206	0x3c809dbd	0.015700215
207	0x3c1821e2	0.009285422
208	0x3c1e77e3	0.009672138
209	0x3c257e69	0.010100939
210	0x3cbdaa38	0.023152456
211	0x3c91e040	0.017807126
212	0x3c8a36d9	0.016871857
213	0x3c7d7de0	0.0154719055
214	0x3af1759f	0.0018421895
215	0x3cb8d0d3	0.022560513
216	0x3c6326b5	0.013864209
217	0x3c817c75	0.015806416
218	0x3c91fbd6	0.01782028
219	0xbb035771	-0.0020041133
220	0x3c99b49e	0.018762883
221	0x3c84ac1b	0.016195348
222	0x3c728c78	0.014803998
223	0x3c9d30ce	0.019188311
224	0xb90d6b80	-0.00013486855
225	0xbb087a5a	-0.002082488
226	0xbc3aaaee	-0.011393292
227	0xbc3bbc53	-0.011458474
228	0x3b1f1a70	0.0024277233
229	0x3c8ca4ea	0.01716848
230	0x3b719ea8	0.0036868248
231	0xbb1f2dfc	-0.0024288883
232	0xbb30e20e	-0.0026990208
233	0x3bed3ea4	0.0072401334
234	0x3c67db90	0.014151469
235	0x3c23dc50	0.010001257
236	0x3bcab04b	0.0061855665
237	0x3c0cc2f8	0.008591406
238	0x3c584d69	0.01320205
239	0x3c34357e	0.010999082
240	0x3c36b3dc	0.01115128
241	0x3c03af7b	0.008037443
242	0x3c533b98	0.012892626
243	0x3c5b45fe	0.013383387
244	0x3c6a51e0	0.014301747
245	0x3c31417a	0.0108188335
246	0x3be26ced	0.0069099576
247	0x3c3a6e29	0.011378803
248	0x3c636812	0.013879793
249	0x3c8d0bab	0.017217478

momentum_buffer f4 [10]
0	0x3bedccca	0.007257079
1	0xbc81f261	-0.015862646
2	0xbb8f194c	-0.0043670293
3	0x3bdc4ee2	0.0067232708
4	0xbc2ccb3d	-0.010546503
5	0xbb7bfaf6	-0.0038449145
6	0x39ff79ac	0.00048728043
7	0x3cb5c273	0.022187447
8	0x3ba1b0aa	0.00493439
9	0x3a564c38	0.00081748096

momentum_buffer f4 [20, 10, 5, 5]
0	0x3b9fda63	0.0048783286
1	0x3b01ba14	0.001979475
2	0xbb236ac4	-0.0024935463
3	0xbb28b5e2	-0.0025743176
4	0xbb03a5ae	-0.0020087766
5	0x3b1d66f9	0.0024017675
6	0xb78961c0	-1.6377191e-05
7	0xba30abc0	-0.000673946
8	0xbbc8725c	-0.0061171483
9	0xbc00b097	-0.007854602
10	0xbb9a8b74	-0.004716331
11	0xbb547804	-0.0032420168
12	0xbc038c0f	-0.008028998
13	0xbbcb4115	-0.0062028267
14	0xbb27bf08	-0.0025596041
15	0x3a67d308	0.0008843397
16	0xba9123a2	-0.0011073241
17	0xbbd83a7c	-0.0065987688
18	0xbc072342	-0.008248152
19	0xbc0b1f36	-0.008491328
20	0x3b1e326e	0.0024138945
21	0xba99f39f	-0.0011745578
22	0xbb710951	-0.0036779235
23	0xbbcaef36	-0.006193067
24	0xb9b08068	-0.00033665006
25	0x3c849b22	0.016187254
26	0x3b6373ec	0.0034706546
27	0xbba32203	-0.0049784197
28	0xbcb1fd43	-0.02172721
29	0xbc80f3c8	-0.015741244
30	0x3bea9bb3	0.007159674
31	0xb969f8a0	-0.00022313232
32	0xbc580ec9	-0.013187119
33	0xbcab3d8a	-0.020903368
34	0xbb881530	-0.0041529164
35	0x3bbc4ef4	0.0057467166
36	0xba902ade	-0.0010999104
37	0xbc6c285a	-0.014413917
38	0xbcba65a0	-0.022753537
39	0xbbe87454	-0.0070939455
40	0x3bb701aa	0.005584915
41	0xb825bd70	-3.9515493e-05
42	0xbc61f486	-0.013791209
43	0xbcba2d0b	-0.022726556
44	0xbc87d602	-0.016581539
45	0x3b62d11e	0.0034609507
46	0x3beb4cfc	0.007180808
47	0xbca4c77f	-0.020114658
48	0xbc77e599	-0.015130424
49	0xbc113287	-0.008862144
50	0x3b8a9086	0.0042286543
51	0x3aadea10	0.0013268609
52	0xbc910f4f	-0.017707495
53	0xbc48641c	-0.012230899
54	0x3c24e085	0.010063295
55	0x3abb87fd	0.0014307495
56	0xbc68cf2d	-0.014209551
57	0xbca2b4be	-0.019861575
58	0xbb5ca1ac	-0.00336657
59	0xba02adc0	-0.0004984997
60	0xbb95390d	-0.00455392
61	0xbc4d7b01	-0.012541533
62	0xbc8c474e	-0.017123844
63	0xbc093f1c	-0.008376863
64	0xbc3d8127	-0.011566437
65	0xbaba292c	-0.0014202944
66	0xbc18aca2	-0.009318503
67	0xbc92c9c0	-0.017918468
68	0xbc46dd9c	-0.012137797
69	0xbc14fff8	-0.009094231
70	0xba018a10	-0.00049415324
71	0xbc0cec7d	-0.008601305
72	0xbc31116e	-0.010807378
73	0xbc3476eb	-0.01101468
74	0xbbb0fa61	-0.0054009412
75	0xb99c8400	-0.00029852986
76	0xb9ab2a68	-0.00032647257
77	0xbb812ad6	-0.003941874
78	0x3a395105	0.0007069263
79	0x3b015d94	0.0019739615
80	0x3934c718	0.00017240306
81	0xbb8a8aae	-0.0042279577
82	0xbaf78796	-0.0018885012
83	0xba5dce1c	-0.00084611936
84	0xba0599c8	-0.00050964626
85	0xbab78f5c	-0.0014004516
86	0xbab9487c	-0.0014135982
87	0x39e22fd0	0.00043141702
88	0xbaf47240	-0.0018649772
89	0xbb3041e4	-0.0026894743
90	0xbbe56c2e	-0.0070014214
91	0xbbd5f7bf	-0.006529778
92	0xbaeecbaa	-0.0018218656
93	0x3ae5dbdc	0.0017536837
94	0xbb0718d4	-0.0020614164
95	0xbb829307	-0.003984812
96	0xbbb22c0f	-0.005437381
97	0xba82a51a	-0.0009967417
98	0xbb37660a	-0.0027984404
99	0xba9a2f1e	-0.001176331
100	0x3cb619ea	0.022229154
101	0x3b956398	0.0045589916
102	0xbc945924	-0.018108912
103	0xbcff683d	-0.031177634
104	0xb9fa0a40	-0.00047691353
105	0x3c00d877	0.007864109
106	0xbb7997b7	-0.0038084814
107	0xbcda78c7	-0.02666892
108	0xbcab3b89	-0.020902412
109	0xbaa634e0	-0.0012680553
110	0xbb0142a3	-0.0019723556
111	0xbc8f4f56	-0.017493885
112	0xbd265591	-0.040608946
113	0xbce24bda	-0.02762406
114	0xbc73869c	-0.014863636
115	0x3a7aefec	0.00095724943
116	0xbc6518cd	-0.013982964
117	0xbd21a536	-0.039464198
118	0xbcfe137c	-0.03101515
119	0xbc82da0e	-0.015973117
120	0x3c0d9db6	0.008643558
121	0xbbf1caa0	-0.007378891
122	0xbd0d393a	-0.034478404
123	0xbd05405a	-0.032532074
124	0xbc70d01a	-0.014698053
125	0x3b878034	0.004135156
126	0xbbac92bc	-0.0052665155
127	0xbc634c49	-0.013873168
128	0xbb029e10	-0.0019930638
129	0x3ba30384	0.0049747843
130	0x3b11f4ef	0.0022271236
131	0xbc95473b	-0.018222442
132	0xbcbab1e5	-0.022789905
133	0xb8e60400	-0.00010968
134	0x3b83f373	0.004026824
135	0xbc30ed37	-0.010798744
136	0xbca540e1	-0.020172538
137	0xbc6fef99	-0.014644527
138	0xbbcef658	-0.0063159876
139	0xbc314d1a	-0.010821605
140	0xbbea478a	-0.0071496414
141	0xbcb204e9	-0.021730857
142	0xbc8b30f9	-0.016991125
143	0xbc5e65f6	-0.013574114
144	0xbb8b5a6d	-0.004252723
145	0xbba90801	-0.005158425
146	0xbcb242e4	-0.021760412
147	0xbc890fa4	-0.01673109
148	0xbc1c2cf4	-0.009532202
149	0xbab3d36c	-0.0013719625
150	0xbafceca4	-0.0019296599
151	0xbb222bd7	-0.002474537
152	0xbbd5a384	-0.0065197367
153	0xbbdce45e	-0.0067410907
154	0xba8aa148	-0.001057663
155	0xbbd4878c	-0.006485885
156	0xbbc7ab4c	-0.006093418
157	0xbc2e1ff3	-0.0106277345
158	0xba892d2c	-0.0010465733
159	0x3a0e3a50	0.00054255594
160	0x37b59600	2.164673e-05
161	0xbb282304	-0.0025655637
162	0xbbcba950	-0.006215252
163	0xbb91ccd8	-0.004449468
164	0xbb251be8	-0.0025193635
165	0x3b2573fc	0.0025246134
166	0xba9fe1bc	-0.0012198011
167	0xbac05870	-0.0014674794
168	0xbab61f40	-0.0013894811
169	0x39931830	0.00028056046
170	0x39eaa1a0	0.00044752378
171	0xbad7aa28	-0.0016453909
172	0xbbeb289e	-0.007176473
173	0xbb335d41	-0.0027368816
174	0x3a6a8f3c	0.0008947735
175	0x3b1d4841	0.0023999366
176	0xbb8ae4ac	-0.0042386856
177	0xbb04cac4	-0.002026246
178	0xbb6653e0	-0.0035145208
179	0xbc2bfa74	-0.010496724
180	0xbbc98744	-0.006150158
181	0xbb771fd8	-0.003770819
182	0xba17a500	-0.000578478
183	0xbc04d83a	-0.008108193
184	0xbc0b8326	-0.008515155
185	0x3b0618ce	0.0020461562
186	0xb89befc0	-7.435633e-05
187	0xbbc0f12e	-0.005888126
188	0xbc0a97ec	-0.008459073
189	0xbc09e28f	-0.008415832
190	0x3b9e4db4	0.0048310403
191	0x3be8948c	0.0070977863
192	0x3b10ecd3	0.0022113814
193	0x3af4f474	0.0018688575
194	0xb9b1cf1c	-0.0003391438
195	0x3b247a8a	0.0025097453
196	0x3a01d0bc	0.00049520633
197	0xbb3efb8e	-0.0029141637
198	0xbbb2f400	-0.005461216
199	0x3bbe9c08	0.00581694
200	0x3afef788	0.0019452432
201	0xbbfb46ac	-0.007668337
202	0xbbdb137c	-0.0066856723
203	0x3b1b6493	0.002371107
204	0x3c083587	0.008313543
205	0xba72aa1a	-0.00092569145
206	0xbc1eabe2	-0.009684535
207	0xbc04afa0	-0.008098513
208	0xba21ca60	-0.0006171819
209	0xba9f50a4	-0.001215477
210	0xbc2f7c49	-0.010710784
211	0xbc543966	-0.012953138
212	0xbc052d19	-0.008128428
213	0xbbab23c8	-0.0052227713
214	0xbbb74120	-0.0055924803
215	0xbc341f2c	-0.01099376
216	0xbc9756e7	-0.018474055
217	0xbc536877	-0.012903324
218	0xbc233cbf	-0.0099632135
219	0xbb2e1aea	-0.0026566335
220	0xbbe3f4e6	-0.0069566844
221	0xbc8bc8c3	-0.017063504
222	0xbc1aa4b8	-0.009438686
223	0xbc08a329	-0.008339682
224	0xbbba070e	-0.0056771105
225	0x3b2a14f6	0.0025952435
226	0x384d9200	4.901178e-05
227	0xbb989f7e	-0.004657685
228	0xba6bf068	-0.0009000362
229	0x3be160ce	0.006877995
230	0x3b335854	0.002736588
231	0xbb449c14	-0.0030000256
232	0xbc1c1dac	-0.009528559
233	0x3b264160	0.0025368556
234	0x3baf63a0	0.0053524524
235	0xba72d940	-0.000926394
236	0xbc1822ff	-0.0092856875
237	0xbb90bc08	-0.0044169463
238	0x3b326eec	0.002722676
239	0xbb1969d7	-0.0023409033
240	0xbbed19ec	-0.007235756
241	0xbc595acf	-0.013266279
242	0xbbdf30a7	-0.0068112197
243	0xbb3d36ca	-0.0028871768
244	0x3a077c40	0.0005168356
245	0xbb7ebdbc	-0.0038870415
246	0xbc5c47c0	-0.013444841
247	0xbbdf2261	-0.006809518
248	0xbbc91c8f	-0.0061374377
249	0xbb90ed8a	-0.004422848
250	0x3bbeff37	0.005828764
251	0x3b2027c0	0.0024437755
252	0x3bf7952a	0.0075556235
253	0x3c2ee20f	0.010674014
254	0x3c52c407	0.012864119
255	0x3b543754	0.003238161

momentum_buffer f4 [20]
0	0xbb958ad4	-0.0045636687
1	0x3b4604c9	0.0030215255
2	0x3b7678bf	0.0037608591
3	0x3bea9b6c	0.007159641
4	0xbb1d9123	-0.0024042807
5	0xbba0b6a9	-0.0049045873
6	0xbb09cdee	-0.0021027285
7	0x3b88f8a3	0.0041800304
8	0x3abb13bf	0.0014272853
9	0x3b0c31c6	0.0021391972
10	0xbb8be883	-0.004269661
11	0x3a5f7a12	0.0008524965
12	0xb9095830	-0.0001309819
13	0x3c28134a	0.010258505
14	0x3a1fdd90	0.0006098384
15	0xbb90e7c2	-0.004422159
16	0xbb855ced	-0.0040699155
17	0x3ba40e7a	0.0050066086
18	0xbb14960d	-0.0022672445
19	0x384b16b0	4.84201e-05
